models/lstm_pltr.pt (torch, 216549 bytes, 9 tensors)

lstm.weight_ih_l0 f4 [256, 11]
0	0x3dfb3723	0.12266376
1	0xbdeee972	-0.1166562
2	0xbdbb8b6e	-0.091574535
3	0xbd9e0924	-0.07716587
4	0xbdbf2cd2	-0.09334721
5	0xbe105303	-0.14094166
6	0xbe13c608	-0.14431012
7	0xbdaffb19	-0.08592815
8	0xbd6f4c57	-0.058422413
9	0xbc5ae319	-0.013359808
10	0xbde4eac8	-0.111775935
11	0x3da48cc1	0.08034659
12	0xbd74525f	-0.059648868
13	0x3e04a7c8	0.12954628
14	0xbdc122d3	-0.0943047
15	0x3e215050	0.15753293
16	0xbd36e0b3	-0.044647884
17	0xbd171153	-0.036881756
18	0xbd813199	-0.06308288
19	0x3e0384fd	0.128437
20	0xbd86f597	-0.06589811
21	0xbd46cf58	-0.048537582
22	0x3aad79ad	0.0013235115
23	0xbddd0be1	-0.10793281
24	0xbdf38c0d	-0.11891947
25	0xbdec9fb0	-0.115538955
26	0x3c99c58b	0.018770954
27	0x3ca1c70a	0.01974823
28	0x3c5e3c51	0.013564185
29	0x3d82febf	0.06396245
30	0xbdb292c4	-0.087193996
31	0xbdacfd1e	-0.08446716
32	0xbdddc36a	-0.10828288
33	0x3d7d806f	0.061890062
34	0x3e193f67	0.14965592
35	0x3cb0481f	0.021518765
36	0xbadbef83	-0.0016779754
37	0x3c4f4cfa	0.01265263
38	0x3c3429e2	0.010996314
39	0xbdb7c94e	-0.08973943
40	0x3d7398bd	0.059471834
41	0xbc05d952	-0.008169489
42	0x3d87c737	0.06629794
43	0x3dceb646	0.1009336
44	0x3d1127e0	0.03543842
45	0xbd03407c	-0.03204392
46	0xbd733be9	-0.059383307
47	0x3d7ced53	0.061749768
48	0xbdc280ac	-0.094971985
49	0x3ddc44b7	0.10755294
50	0x3ce26fdb	0.027641227
51	0x3d87cc83	0.066308044
52	0xbde95ddb	-0.11394855
53	0x3de4a77f	0.1116476
54	0x3ae51200	0.0017476678
55	0x3dbf02f3	0.093267344
56	0xbd21d195	-0.039506514
57	0xbdc5905f	-0.09646677
58	0x3dbdaf84	0.092619926
59	0xbdab09ef	-0.08351504
60	0x3d61716e	0.055039816
61	0xbdd77d47	-0.10521942
62	0x3ddc8443	0.107674144
63	0xbd96df4e	-0.07366811
64	0x3d917bad	0.071036674
65	0xbd0ecaf0	-0.034861505
66	0x3dd2085e	0.10255502
67	0x3e039603	0.12850194
68	0x3d908bae	0.07057892
69	0xbdc6f8f2	-0.09715451
70	0xbdefe0f4	-0.11712828
71	0x3defeffd	0.11715696
72	0x3dbc0900	0.09181404
73	0x3c305fae	0.010764999
74	0x3bc46517	0.005993496
75	0x3ddf6c81	0.10909367
76	0xbda8a12c	-0.08233866
77	0xbdbe6eaa	-0.09298451
78	0xbd83ee92	-0.06441988
79	0xbd43812c	-0.04773061
80	0xbd0015b2	-0.03127069
81	0xbdda8fb2	-0.10671939
82	0xbd231477	-0.03981444
83	0xbe03bf52	-0.12865952
84	0xbdd2e3e7	-0.10297375
85	0x3db1940c	0.08670816
86	0xbcb8bb34	-0.022550203
87	0xbdbc9ab4	-0.09209195
88	0xbc3d0ced	-0.011538726
89	0xbc3f246e	-0.0116664
90	0x3c9c5375	0.019082764
91	0xbdd121cb	-0.102115236
92	0x3dcbf26b	0.09958347
93	0xbdaa50b2	-0.08316173
94	0x3d9bfa5d	0.076161124
95	0x3d15ff13	0.03662021
96	0xbdb0c969	-0.08632166
97	0xbd8c7ebd	-0.06860111
98	0x3da8fa8a	0.082509115
99	0xbdc68eb5	-0.09695188
100	0xbd70ec84	-0.05881931
101	0xbde439a5	-0.11143807
102	0xbd7fe95b	-0.062478404
103	0x3d0e24b5	0.034702975
104	0xbda25be7	-0.07927685
105	0x3c94e4e7	0.018175555
106	0x3ddeaec6	0.10873179
107	0x3d851014	0.06497207
108	0x3cd61992	0.02613524
109	0xbd7d6c20	-0.061870694
110	0xbd5339c1	-0.05156875
111	0xbdc07645	-0.09397558
112	0x3d84f338	0.06491703
113	0xbd27866e	-0.040899687
114	0x3bb32b67	0.0054678204
115	0xbdcdfe69	-0.100582905
116	0xbe2f1699	-0.17098464
117	0xbddbba27	-0.10728865
118	0x3d3d8791	0.046271864
119	0xbc9503f0	-0.018190354
120	0xbdd47f9a	-0.103759006
121	0x3cea5c7f	0.028608559
122	0x3ddee2d8	0.10883111
123	0xbc6d1fa6	-0.014472878
124	0xba799541	-0.0009520837
125	0x3e13c3eb	0.14430206
126	0xbd6a24c0	-0.057163954
127	0xbd08bc98	-0.033382982
128	0x3d63b4c1	0.055592302
129	0xbd24b174	-0.040208295
130	0x3dd0d463	0.101967596
131	0xbd8c66d8	-0.068555534
132	0x3c464f68	0.012103893
133	0x3e040896	0.128939
134	0x3d2bd4eb	0.0419511
135	0x3e0fb8c1	0.14035322
136	0xbdbfba7c	-0.09361741
137	0x3d6aa79f	0.057288762
138	0xbd9fdae5	-0.07805423
139	0x3ddf4b5c	0.109030455
140	0xbd962975	-0.07332126
141	0x3d95bd84	0.07311538
142	0x3dc94eda	0.09829493
143	0xbdad4cf4	-0.08461943
144	0x3ca6b178	0.020348296
145	0x3c2b35f7	0.010449878
146	0x3c3b2217	0.011421702
147	0x3df4c961	0.119524725
148	0x3d2d88c5	0.04236676
149	0xbe2330f8	-0.15936649
150	0x3e248a57	0.16068397
151	0x3dd86bf7	0.10567468
152	0x3d97116d	0.073763706
153	0xbde6d1f2	-0.11270513
154	0x3cfdf315	0.0309997
155	0x3d4c4cb3	0.049877834
156	0xbcdcb7c2	-0.026943091
157	0x3d97d09c	0.07412836
158	0x3d485ffc	0.048919663
159	0x3d9d27cb	0.076736055
160	0x3cf482e8	0.029847577
161	0xbda8b444	-0.08237508
162	0xbc84170b	-0.016124269
163	0xbe0f123e	-0.13971803
164	0x3c735400	0.01485157
165	0x3d540beb	0.05176918
166	0xbd8dbdb9	-0.06920952
167	0x3deae585	0.114695586
168	0x3d7ee1d9	0.062227104
169	0x3dd28bb2	0.10280551
170	0xbdc91619	-0.09818668
171	0xbe167914	-0.14694625
172	0x3dadbbb3	0.084830664
173	0x3e0eb56c	0.13936394
174	0xbe01331d	-0.12617154
175	0xbd60db38	-0.054896563
176	0xbdbe491e	-0.0929129
177	0x3d96b3a1	0.0735848
178	0x3dbf097c	0.09327981
179	0x3d7cff15	0.061766703
180	0x3d1f865a	0.038946487
181	0xbd4a729e	-0.049425714
182	0xbdcfc564	-0.10145071
183	0x3db57d52	0.088617936
184	0x3dce2a37	0.100666456
185	0xbaa8297d	-0.0012829747
186	0x3da4e580	0.08051586
187	0xbd76cb74	-0.06025262
188	0x3d05339b	0.032519918
189	0xbdd9a182	-0.10626508
190	0xbdde1d8f	-0.108454816
191	0x3c007e60	0.00784263
192	0x3e132e58	0.14373147
193	0x3d418a4e	0.04725104
194	0xbe10da9c	-0.14145893
195	0x3dd5428d	0.10413084
196	0x3e013899	0.12619247
197	0x3cdb55e8	0.026774362
198	0x3c7a3726	0.0152719375
199	0xbe02e155	-0.1278127
200	0xbdde0b6b	-0.108420216
201	0xbe0161dc	-0.12634987
202	0xbe0e9700	-0.1392479
203	0x3d89dd6d	0.06731687
204	0xbe2065f3	-0.1566389
205	0xbbb3dff5	-0.0054893442
206	0x3d868d3b	0.06569906
207	0x3cbbad7c	0.022909872
208	0x3d4f7ef8	0.050658196
209	0x3df19769	0.11796457
210	0x3c094992	0.008379357
211	0x3daee683	0.0854006
212	0xbd7e7c00	-0.062129974
213	0xbd28d44a	-0.04121808
214	0x3bf43236	0.0074522747
215	0xbdb06e2e	-0.08614765
216	0xbde9025b	-0.113774024
217	0xbd40815c	-0.046998367
218	0xbdb754cb	-0.0895172
219	0x3dd1f44e	0.102516755
220	0xbdb06000	-0.086120605
221	0x3db68981	0.089129455
222	0xbd63a34f	-0.055575665
223	0x3caf8e38	0.02143012
224	0xbcc0128b	-0.023446342
225	0x3d835b95	0.06413952
226	0x3de3f81e	0.11131309
227	0x3d84cd32	0.064844504
228	0x3d7feb18	0.062480062
229	0xbcd3b02f	-0.025840847
230	0xbcaac110	-0.020844012
231	0xbdc8d296	-0.09805791
232	0x3d1001cf	0.035157975
233	0x3d984069	0.0743416
234	0x3d2f36e1	0.042776946
235	0xbd50ce62	-0.050978072
236	0xbd81f83e	-0.063461766
237	0xbe197832	-0.14987257
238	0xbd6974b3	-0.05699606
239	0x3d95f26f	0.07321631
240	0x3d8ae048	0.067810595
241	0x3db6f938	0.089342535
242	0xbe0dd076	-0.13849053
243	0xbe186030	-0.14880443
244	0xbba80791	-0.005127855
245	0xbc4ec8f6	-0.012621155
246	0x3d0b7924	0.034051076
247	0xbdd8a9fa	-0.105792955
248	0xbd0fe661	-0.035131816
249	0x3a37fd86	0.0007018674
250	0x3dc00698	0.09376258
251	0xbdaaa9df	-0.083331816
252	0x3d7103a0	0.058841348
253	0x3d8b6a9b	0.06807443
254	0xbc92803c	-0.017883413
255	0xbb8a5bba	-0.0042223604

lstm.weight_hh_l0 f4 [256, 64]
0	0x3d7e681c	0.062111005
1	0xbde7c0fa	-0.11316104
2	0xb98a22f4	-0.00026347453
3	0xbde0577a	-0.10954185
4	0xbcab37d9	-0.020900654
5	0xbcf80a6a	-0.030278403
6	0xbdc4bc31	-0.09606207
7	0xbe13e06b	-0.14441077
8	0x3bef2595	0.0072981813
9	0xbc8ec3c5	-0.017427335
10	0xbc481edd	-0.01221439
11	0xbde69f26	-0.11260824
12	0xbcdd94e8	-0.027048543
13	0x3aa6a4fc	0.0012713964
14	0x3e2845ac	0.16432828
15	0x3d8616f5	0.065473475
16	0x3e13c2e0	0.14429808
17	0xbd41ffcb	-0.047363084
18	0x3c566348	0.013085194
19	0xbd97fae8	-0.074209034
20	0xbbbde152	-0.0057946825
21	0xbdc8e2dc	-0.09808895
22	0x3d71c184	0.05902244
23	0x3d94a9c2	0.07258941
24	0x3bf52827	0.007481593
25	0xbe2da53d	-0.16957565
26	0xbd2fa22f	-0.04287928
27	0xbdd5b4c7	-0.10434871
28	0xbd1165d2	-0.035497494
29	0xbd1a782a	-0.037712254
30	0xbd085b29	-0.033290062
31	0x3dd6a42f	0.10480534
32	0x3cc6bf35	0.024261096
33	0x3ce4c1b7	0.027924402
34	0x3d6144cc	0.05499725
35	0x3e2085b7	0.15676008
36	0x3d386d84	0.045026317
37	0x3d6e05e8	0.0581111
38	0x3cd3a2b5	0.02583442
39	0xbd47afe0	-0.04875171
40	0x3d5cfb0b	0.05395035
41	0xbcbf969a	-0.023387242
42	0x3d95f886	0.07322793
43	0xbdb90a31	-0.09035147
44	0xbd9f3b21	-0.0777495
45	0xbdba41e5	-0.090946
46	0xbdbbc977	-0.09169286
47	0x3d885532	0.06656875
48	0xbc20c45b	-0.00981244
49	0x3cdc8c18	0.02692227
50	0xbdb62fe9	-0.08895857
51	0xbbe8cbe3	-0.0071043833
52	0x3d5594a9	0.052143726
53	0xbc2f436b	-0.010697226
54	0x3d09b33f	0.033618208
55	0x3d6bff58	0.05761656
56	0x3d55a26d	0.052156854
57	0x3d7fc7aa	0.062446274
58	0xbde64853	-0.112442635
59	0x3dd5b1ec	0.104343265
60	0x3db82e3d	0.08993194
61	0xbd15c8ec	-0.036568567
62	0xbcf2be92	-0.029631887
63	0x3daefa58	0.08543843
64	0xbdce0920	-0.10060334
65	0x3db95b2e	0.09050594
66	0xbd1dcd6f	-0.038525995
67	0xbd4fd695	-0.05074175
68	0xbd474350	-0.04864818
69	0x3d8f565f	0.06998896
70	0xbd82343e	-0.06357621
71	0xbdb42dad	-0.087977745
72	0xbc099035	-0.008396198
73	0xbcce9b93	-0.025220668
74	0xbdd5e258	-0.10443562
75	0xbcadc76b	-0.021213254
76	0x3d058414	0.032596663
77	0xbc051169	-0.008121827
78	0xbd8f05ac	-0.06983504
79	0xbdb414ec	-0.08793053
80	0xbdbe9cf1	-0.09307278
81	0xbc63db07	-0.013907201
82	0x3c8cfb2a	0.017209608
83	0x3dfccb78	0.12343496
84	0xbdec2ea5	-0.11532334
85	0x3ca162fd	0.019700522
86	0xbd9ae561	-0.07563282
87	0xbc73ea7c	-0.014887448
88	0x3ca9e34c	0.020738266
89	0xbe177398	-0.1479019
90	0xbcc99c62	-0.024610702
91	0x3da675b7	0.08127921
92	0xbd5d59b5	-0.05404063
93	0x3d127f46	0.03576591
94	0xbdd98846	-0.10621695
95	0xbe07938a	-0.13239875
96	0xbe1c135f	-0.15241764
97	0xbbf12a9a	-0.007359815
98	0xbcda44dc	-0.026644163
99	0xbd5fe3f6	-0.05466076
100	0xbd1002ed	-0.03515904
101	0x3d2e011c	0.042481527
102	0xbd9a3a11	-0.075306065
103	0xbc33e557	-0.010979972
104	0xbdff649e	-0.12470363
105	0x3c4cb423	0.01249412
106	0xbced5b14	-0.028974093
107	0x3cdc6b2c	0.026906572
108	0x3d8b4463	0.06800153
109	0x3dc2a4be	0.09504078
110	0x3db8ade6	0.090175435
111	0x3ce3701f	0.027763424
112	0x3ce4d9c8	0.027935877
113	0xbd48e002	-0.049041755
114	0xbdcf9542	-0.101358905
115	0xbda3eae0	-0.08003783
116	0x3c6b22e8	0.014351584
117	0x3de57611	0.1120416
118	0xbbcf5266	-0.0063269613
119	0x3ccfcc2d	0.025365913
120	0xbe0f12de	-0.13972041
121	0xbddb6fcb	-0.10714682
122	0xbc0530f5	-0.008129348
123	0x3e122063	0.14270167
124	0x3ce0e387	0.027452243
125	0xbda1c604	-0.078990966
126	0x3e2c9ee7	0.16857491
127	0xbd5a7ec4	-0.05334355
128	0xbdcc2712	-0.099683896
129	0x3c70a180	0.014686942
130	0x3dd5fff7	0.10449212
131	0xbdbd405e	-0.09240793
132	0xbcf08b0f	-0.029363183
133	0xbd245946	-0.0401242
134	0xbcfce540	-0.030871034
135	0x3daf5b1d	0.085623
136	0x3d275f71	0.040862504
137	0x3da53975	0.080676
138	0xbe04388d	-0.12912197
139	0x3ddc0d81	0.10744763
140	0x3dc8ab28	0.097982705
141	0x3caeef7b	0.021354428
142	0xbd863fb0	-0.06555116
143	0x39eac298	0.00044776942
144	0x3d8f4208	0.06995016
145	0x3c1fa7eb	0.009744625
146	0xbcff31c7	-0.031151665
147	0x3d840e68	0.0644806
148	0x3c9cc0fe	0.019134995
149	0xbde45081	-0.111481674
150	0xbcc6a56b	-0.0242488
151	0xbd6b4aeb	-0.057444494
152	0x3e02d581	0.12776758
153	0xbd0fd4b1	-0.035114948
154	0x3b99bb9b	0.004691554
155	0xbdcfd48f	-0.10147964
156	0x3d8f99d5	0.07011763
157	0xbdcb1bc6	-0.09917407
158	0x3d8bc6da	0.06825037
159	0xbdeb5798	-0.114913166
160	0x3d89853c	0.067148656
161	0x3d0f7fc7	0.035033967
162	0xbaa135c2	-0.0012299346
163	0xbd2d9b65	-0.042384524
164	0x3dce5e60	0.10076594
165	0x3ccc1eab	0.024916967
166	0xbdc7a388	-0.09747988
167	0x3d483053	0.04887421
168	0x3dd00a94	0.101582676
169	0xbc27f22f	-0.010250612
170	0xbb63ff23	-0.0034789525
171	0xbe08d03d	-0.13360687
172	0xbdd188ee	-0.102311954
173	0xbd269e39	-0.040678237
174	0x3db853e4	0.09000376
175	0xbdb7ab52	-0.08968224
176	0xbc64325e	-0.013928024
177	0x3dcaa58f	0.09894859
178	0x3d767cf3	0.060177755
179	0x3cd39af9	0.025830733
180	0x3d9cfd35	0.07665483
181	0x3dbce64c	0.09223613
182	0xbd9db8eb	-0.07701286
183	0xbce48c84	-0.027899034
184	0xbb8a85a1	-0.0042273556
185	0xbc997307	-0.018731607
186	0x3d9bd391	0.076087125
187	0xbe04d088	-0.12970173
188	0x3d97edc0	0.07418394
189	0xbdbc24be	-0.091866955
190	0x3d52a432	0.05142612
191	0xbcc11c86	-0.023573171
192	0x3dbf51b2	0.09341754
193	0xbdd931ee	-0.106052265
194	0xbd27fa04	-0.041009918
195	0x3cbf3aa6	0.023343395
196	0x3ceba830	0.028766721
197	0xbdb21c08	-0.08696753
198	0xbd42ffe0	-0.047607303
199	0x3c6d0dd7	0.014468632
200	0xbbfd064e	-0.007721699
201	0x3c96f240	0.01842606
202	0x3d4e906d	0.050430704
203	0xbdd21449	-0.10257775
204	0xbc8a35ef	-0.01687142
205	0x3da847b4	0.08216801
206	0xbcc5a9f3	-0.02412889
207	0xbdd89bdd	-0.105766036
208	0x3d43cc7d	0.047802437
209	0xbe04b36e	-0.12959072
210	0xbc908f8d	-0.017646575
211	0x3d9daba6	0.07698755
212	0x3cdc51eb	0.02689453
213	0x3db0da91	0.08635438
214	0xbcf094c0	-0.029367805
215	0x3e0c4427	0.13697873
216	0xbdcab794	-0.09898296
217	0xbe688d8f	-0.2271025
218	0x3d6e7cb4	0.058224395
219	0xbc8401b5	-0.016114095
220	0x3db4001c	0.08789083
221	0x3e155f28	0.1458708
222	0xbd3e7341	-0.046496633
223	0x3b0abd21	0.0021169859
224	0x3bb74092	0.005592414
225	0xbd2fa6ea	-0.04288379
226	0x3d13306e	0.035934858
227	0x3de87b72	0.1135167
228	0x3dbcfeb3	0.092282675
229	0xbd8c6089	-0.0685435
230	0xbdd8b8aa	-0.10582097
231	0xbd579f3f	-0.052642103
232	0xbd4bc930	-0.049752414
233	0x3d66c435	0.05633946
234	0xbda44e5d	-0.08022759
235	0xbd3dd279	-0.0463433
236	0xbd8191f3	-0.06326666
237	0x3daf9e7f	0.085751526
238	0xbd9d8ea3	-0.076932214
239	0x3d3740c3	0.044739496
240	0xbcb2c6c5	-0.021823296
241	0x3c9f8224	0.019471236
242	0xbd1f56b2	-0.03890104
243	0xbe097701	-0.13424303
244	0x3dd3d97a	0.10344215
245	0xbd58e8f8	-0.05295655
246	0xbd07bb10	-0.03313738
247	0x3e06a9c5	0.131507
248	0x3badafcf	0.005300499
249	0x3db6b1cc	0.08920631
250	0xbd865a30	-0.06560171
251	0x3db2aa58	0.08723897
252	0x3c907d8a	0.017637987
253	0xbd9b538e	-0.07584296
254	0x3bd84430	0.0065999255
255	0x3ac24c18	0.0014823703

lstm.bias_ih_l0 f4 [256]
0	0xbd8c3bb2	-0.068473235
1	0x3e03ba43	0.12864022
2	0x3e0c50e3	0.13702731
3	0x3c9c8b15	0.019109288
4	0x3e0b02e1	0.13575317
5	0x3db8dc2a	0.09026368
6	0xbd8bd442	-0.06827594
7	0x3cdcc176	0.026947718
8	0xbcf27311	-0.029595884
9	0xbd72c31b	-0.0592681
10	0xbd5fb2f4	-0.054614022
11	0x3d9dfc3b	0.07714125
12	0x3e20d9de	0.1570811
13	0xbd842a5d	-0.06453393
14	0x3d8500f9	0.06494326
15	0xbd967b17	-0.07347696
16	0x3dcab9b3	0.098987006
17	0xbd4f8fdc	-0.050674304
18	0x3e075737	0.13216864
19	0xbdb4353a	-0.08799215
20	0x3de7bdf9	0.11315531
21	0xbdb589ae	-0.08864151
22	0x3dc2bb93	0.09508433
23	0x3dd6e260	0.10492396
24	0x3d59e00d	0.053192187
25	0x3dc077b4	0.093978316
26	0x3d9e6244	0.077335864
27	0x3e08e979	0.13370313
28	0x3d1f2c43	0.03886057
29	0x3d8c27c4	0.06843522
30	0x3df417fb	0.119186364
31	0x3e09f0b6	0.1347073
32	0x3c9e98c7	0.01935996
33	0x3be698b5	0.007037247
34	0x3d226a62	0.039652236
35	0x3e1a4a12	0.15067318
36	0x3cd14f39	0.025550472
37	0xbde4ea62	-0.111775175
38	0xbcd1a215	-0.025589982
39	0xbd962e19	-0.07333011
40	0xbd6a9ee7	-0.057280447
41	0x3c363693	0.01112141
42	0xbc50cb22	-0.012743743
43	0x3dfdcb96	0.123923466
44	0x3dc86823	0.097854875
45	0x3dc6b4de	0.097024664
46	0x3d89cd7e	0.06728648
47	0x3d826b47	0.06368118
48	0xbdb4ecd1	-0.08834232
49	0xbd74e8ff	-0.059792515
50	0xbdc0df0e	-0.09417544
51	0x3db68ef2	0.089139834
52	0x3dc99892	0.098435536
53	0xbcdf09f1	-0.02722642
54	0xbdbb2b36	-0.09139101
55	0x3de4c7ef	0.11170947
56	0xba1780b7	-0.0005779373
57	0x3db8d145	0.0902429
58	0xbd12acda	-0.035809375
59	0xbd893ccf	-0.067010514
60	0xbc3e970e	-0.011632694
61	0xbda67f77	-0.08129781
62	0x3d8127ca	0.06306417
63	0xbddd85ad	-0.10816512
64	0xbcb6db04	-0.022321232
65	0x3bea3b5c	0.0071481895
66	0x3dd852da	0.10562678
67	0xbda23a32	-0.07921256
68	0x3e0594d9	0.13045062
69	0xbdbd6345	-0.0924745
70	0xbd9f1e9d	-0.07769511
71	0xbdf8ee59	-0.12154836
72	0x3dc32573	0.09528627
73	0x3c652ac3	0.013987246
74	0xbdf4a230	-0.11944997
75	0x3ccb7f8c	0.024841093
76	0xbc4096ca	-0.011754701
77	0xbd8d9b90	-0.06914437
78	0xbd9b15ef	-0.07572543
79	0x3d8b0f97	0.06790083
80	0x3d44623b	0.047945242
81	0x3cc63733	0.024196243
82	0x3e1185cc	0.14211196
83	0xbbc48cb7	-0.00599822
84	0xbc983be1	-0.01858324
85	0xbdbbf43b	-0.09177443
86	0x3d7623c4	0.060092703
87	0x3d135909	0.035973582
88	0xbbaee0f2	-0.005336874
89	0xbc892922	-0.016743246
90	0xbda0fd00	-0.07860756
91	0xbde6205f	-0.11236643
92	0xbda61330	-0.081091285
93	0x3df07d11	0.117426045
94	0x3ca7575a	0.020427395
95	0xbdbc8978	-0.092059076
96	0x3cab216c	0.02088996
97	0x3e05102a	0.12994447
98	0x3d7d37e6	0.061820887
99	0x3cd57328	0.026055887
100	0x3e0187aa	0.12649408
101	0x3d9a670f	0.07539188
102	0x3c8e7f95	0.01739482
103	0xbd1008ad	-0.035164524
104	0x3dc485d1	0.09595836
105	0x3c44a51e	0.012002258
106	0xbdc08315	-0.09400002
107	0x3dd037a8	0.101668656
108	0x3deea6cc	0.11652908
109	0x3db7aa40	0.089680195
110	0x3da70ea6	0.08157091
111	0xbdf22819	-0.11824054
112	0xbdaaf1b8	-0.083468854
113	0xbd879923	-0.066210054
114	0xbdde4587	-0.10853105
115	0x3ddf4934	0.10902634
116	0xbb937583	-0.0045000925
117	0xbd1165ff	-0.03549766
118	0x3dd12ff0	0.102142215
119	0x3d29080b	0.041267436
120	0x3de9a0f9	0.11407656
121	0xbdb585d9	-0.0886342
122	0x3d6915bc	0.056905493
123	0xbd792eb7	-0.060835566
124	0x3d53f7f2	0.05175013
125	0x3df584a1	0.119881876
126	0xbd06a3ca	-0.032871045
127	0x3d49fb55	0.049311955
128	0xbda01565	-0.07816581
129	0xbd89f291	-0.06735719
130	0xbd4ede7d	-0.05050515
131	0x3d569c82	0.05239535
132	0x3dd9a1b6	0.10626547
133	0x3d3399fb	0.04384802
134	0xbd936a57	-0.07198017
135	0xbde98507	-0.11402326
136	0xbd220bbb	-0.03956197
137	0xbd99802d	-0.07495151
138	0xbd617aac	-0.05504863
139	0x3dfcbbb5	0.1234049
140	0xbdb66e9f	-0.08907818
141	0xbdc4eb2a	-0.096151665
142	0xbdd272c3	-0.10275795
143	0xbc16294a	-0.0091651175
144	0xbd9c489f	-0.07631039
145	0x3d4d87f4	0.050178483
146	0xbd921eef	-0.07134806
147	0x3dbc24c8	0.09186703
148	0x3d8fbcc2	0.070184246
149	0x3dd933b2	0.10605563
150	0xbc9ba6ff	-0.019000528
151	0xbd65b871	-0.0560841
152	0xbd1607f6	-0.036628686
153	0xbda15ef5	-0.0787944
154	0x3def7e5c	0.11694023
155	0x3cc3265d	0.023822004
156	0xbd70e63b	-0.058813315
157	0x3d85d7ad	0.065352775
158	0xbd2d2aa1	-0.042276982
159	0x3c311d6f	0.01081024
160	0xbc080618	-0.008302234
161	0x3d2c3b41	0.042048696
162	0x3dd8d9e2	0.10588433
163	0xbdd9dc70	-0.10637748
164	0x3c744f0b	0.014911423
165	0x3d90adf0	0.07064426
166	0x3cdeafff	0.02718353
167	0x3d639e5c	0.055570945
168	0x3d7cceed	0.061720777
169	0xbdd2abdd	-0.102866866
170	0x3da3cebe	0.07998417
171	0x3bec2fcf	0.0072078477
172	0x3da49bc6	0.08037524
173	0x3c87bf24	0.016570635
174	0x3d98e923	0.07466342
175	0x3c8ba1c6	0.017044913
176	0xbd994fef	-0.07485949
177	0xbd8a6985	-0.067584075
178	0xbd3fcdb8	-0.046827048
179	0xbce3e4e6	-0.027819108
180	0xbd0e210d	-0.03469949
181	0x3d94387d	0.07237337
182	0x3e087b62	0.13328317
183	0x3d9c83d5	0.076423325
184	0x3d9e500b	0.07730111
185	0xbdd0c9b8	-0.10194725
186	0xbdd8cb3c	-0.10585639
187	0x3d3a6b98	0.045512766
188	0x3c4a8878	0.012361638
189	0x3df078ee	0.117418155
190	0x3d37bbbe	0.04485678
191	0xbde2cb15	-0.11073891
192	0x3cbc33be	0.022973891
193	0xbc7194d5	-0.014744957
194	0xbd4f19c9	-0.0505617
195	0xbd283473	-0.041065644
196	0x3c75cf7b	0.0150030805
197	0xbdea5cd3	-0.11443486
198	0x3dd7e1a3	0.10541084
199	0x3cbb9b1d	0.022901112
200	0xbdcacd6b	-0.099024616
201	0x3d04d9cf	0.03243428
202	0x3e013b07	0.12620173
203	0xbd626cf9	-0.055279706
204	0xbd9f8527	-0.07789069
205	0xbc00e092	-0.007866042
206	0xbdc8f278	-0.09811872
207	0xbc9d3fa1	-0.01919538
208	0x3da1bfa7	0.07897883
209	0xbd160931	-0.03662986
210	0xbd4efdd2	-0.05053503
211	0x3d4151c1	0.047197107
212	0xbddb7515	-0.10715691
213	0xbd8bdd35	-0.06829301
214	0x3e061020	0.13092089
215	0xbd951b45	-0.07280592
216	0x3c0ac6e7	0.008470274
217	0x3a88a8de	0.0010426303
218	0xbd330b93	-0.04371221
219	0xbce87fe9	-0.028381305
220	0xbd4ae82e	-0.04953783
221	0xbcc02312	-0.023454223
222	0x3c73fc8a	0.014891753
223	0x3d7b6a4a	0.061380662
224	0xbd90c30d	-0.07068453
225	0xbcd623a9	-0.026140051
226	0x3d954827	0.072891526
227	0xbaedf2e8	-0.0018154057
228	0x3ccd7eb2	0.025084827
229	0x3d355a8c	0.044275805
230	0xbd8151bc	-0.06314418
231	0xbdf46c99	-0.11934776
232	0x3d1f2b50	0.038859665
233	0xbd8e4bf9	-0.069480844
234	0xbd294118	-0.041321844
235	0xbd1dcea6	-0.038527153
236	0x3d90c4ac	0.07068762
237	0x3d981e8f	0.074277036
238	0xbda185c6	-0.078868434
239	0x3c7be8f7	0.015375367
240	0x3c91aa4f	0.017781405
241	0x3da150a6	0.078767106
242	0xbd7dd5f6	-0.061971627
243	0x3e066e2b	0.13127963
244	0x3cf61ff5	0.030044535
245	0x3d015498	0.031574816
246	0x3d495697	0.049154844
247	0xbdc18b20	-0.09450364
248	0x3d96f4cd	0.07370911
249	0xbdc83795	-0.097762264
250	0x3db70438	0.089363515
251	0x3df5295e	0.11970781
252	0xbd45abb5	-0.048259456
253	0xbdcb2cba	-0.0992064
254	0x3dfc6d51	0.12325538
255	0x3d920ea2	0.07131697

lstm.bias_hh_l0 f4 [256]
0	0xbc94c48f	-0.018160133
1	0x3dcee3f1	0.1010207
2	0xbd6c399a	-0.05767212
3	0x3e1383c5	0.14405735
4	0xbd16a813	-0.03678138
5	0xbcdae710	-0.026721507
6	0x3d461403	0.04835893
7	0xbd76e7f1	-0.06027979
8	0xbd43c3b3	-0.047794055
9	0x3d9c8645	0.076427974
10	0xbdeeaab3	-0.11653652
11	0xbd6bb64b	-0.057546895
12	0x3e2650bd	0.16241737
13	0xb9ff4bf4	-0.0004869398
14	0xbc96987f	-0.018383263
15	0xbc846445	-0.016161093
16	0x3ddb11f0	0.10696781
17	0xbd3d6402	-0.046237953
18	0x3d94b46e	0.07260977
19	0xbdbf1faf	-0.09332215
20	0xbc349180	-0.011021018
21	0x3da94dba	0.08266778
22	0x3d666b45	0.056254644
23	0x3bc3f69b	0.0059803254
24	0x3cb5259d	0.022112662
25	0x3e3179cd	0.1733162
26	0x3d9883b9	0.07446999
27	0x3d3a4d6e	0.045484
28	0x3cbb563f	0.022868274
29	0x3c5c53f2	0.0134477485
30	0xbdb7ed19	-0.0898077
31	0x3cad49e9	0.021153407
32	0xbcdce8ec	-0.026966535
33	0xbd29648a	-0.041355647
34	0xbc97a8e8	-0.018513158
35	0xbc94776a	-0.018123347
36	0x3de272a4	0.11057022
37	0x3df18b2a	0.117941216
38	0x3caac7e5	0.02084727
39	0xbcd52309	-0.026017683
40	0x3c3b23e3	0.01142213
41	0x3d7f5679	0.062338326
42	0x3dc577b7	0.096419744
43	0x3c66f336	0.014096072
44	0x3dd80626	0.10548048
45	0x3ce29df9	0.027663218
46	0x3c4dde5c	0.012565222
47	0xbd344b47	-0.044017103
48	0x3c3613d7	0.011113129
49	0x3d7fa734	0.062415317
50	0xbda3fb00	-0.08006859
51	0xbdbb4083	-0.09143164
52	0xbd83dec5	-0.06438974
53	0xbc2bb60b	-0.010480414
54	0x3cb9e00c	0.022689842
55	0x3dc63aa8	0.096791565
56	0x3cfbc95e	0.030735668
57	0xbd9d0f87	-0.07668977
58	0x3d969e5a	0.07354422
59	0x3dedfbd6	0.116202995
60	0xbd1c386b	-0.038139742
61	0xbdad9f00	-0.084775925
62	0x3dfbc5e3	0.12293603
63	0xbd05f375	-0.03270288
64	0xbdbe8cda	-0.09304209
65	0xbd039788	-0.032126933
66	0x3deb1826	0.11479215
67	0xbdd0e52e	-0.101999626
68	0x3db7771b	0.089582644
69	0x3d6ec78b	0.058295768
70	0x3dc47b77	0.095938616
71	0x3db10714	0.08643928
72	0xbb8cae62	-0.004293249
73	0xbd324bf1	-0.043529455
74	0x3dbeff04	0.09325984
75	0xbdd91f0e	-0.10601626
76	0x3da340fb	0.079713784
77	0x3dd33e44	0.103146106
78	0x3cdba7a8	0.026813343
79	0x3dc69e49	0.09698159
80	0x3d0625ab	0.032750767
81	0xbbc37854	-0.005965272
82	0x3c86d3de	0.016458448
83	0x3e065e7d	0.13121982
84	0x3d145f23	0.036223542
85	0x3e081ff1	0.13293435
86	0x3e0d8e63	0.13823847
87	0x3de856f0	0.11344707
88	0x3da26a5d	0.079304434
89	0x3d9986cb	0.07496413
90	0xbd659a6e	-0.05605548
91	0xbd8aa296	-0.06769292
92	0x3b6a0f41	0.0035714658
93	0x3df58d89	0.11989886
94	0xbcb02bdf	-0.021505294
95	0xbdc391e7	-0.09549313
96	0x3dc8b15e	0.09799455
97	0x3c81e667	0.015856935
98	0x3dca1713	0.09867682
99	0x3e42702c	0.18988103
100	0x3ceda8f9	0.029011237
101	0xbcdc8c64	-0.026922412
102	0x3d6ea88e	0.058266215
103	0x3d91ef76	0.07125752
104	0xbdbd774b	-0.09251269
105	0x3dcd2524	0.1001685
106	0xbda346e3	-0.07972505
107	0xbdb3e873	-0.087845705
108	0xbdc5fcad	-0.09667335
109	0xbd84d900	-0.06486702
110	0xbd8172f2	-0.06320752
111	0x3d8044b5	0.06263105
112	0xbd135eb9	-0.035979006
113	0x3c9b5b8e	0.018964555
114	0xbc917d54	-0.017759956
115	0x3d841b76	0.0645055
116	0xbc05729b	-0.008145
117	0x3dda2526	0.10651617
118	0x3d80063b	0.06251188
119	0x3d5fd90d	0.054650355
120	0x3d28e200	0.041231155
121	0x3dd14901	0.102190025
122	0x3d395d2c	0.04525487
123	0x3d997508	0.07493025
124	0x3d06b374	0.032885984
125	0x3dee99f7	0.1165046
126	0x3d3c2499	0.04593334
127	0xbd8e5057	-0.06948917
128	0x3c93d6a2	0.01804668
129	0xbc789bfe	-0.01517391
130	0xbcd54c73	-0.02603743
131	0xbd7f9f63	-0.062407862
132	0xbd7ec323	-0.062197816
133	0xbd2d7301	-0.042346004
134	0x3ddf8f8e	0.10916053
135	0x3cc9219d	0.02455216
136	0xbd8f2dd3	-0.06991162
137	0x3c8ab76b	0.016933164
138	0xbdda04bc	-0.10645434
139	0xb7c79760	-2.3793138e-05
140	0xbd848bce	-0.06471978
141	0xbd2ed3e8	-0.04268256
142	0x3c512b05	0.012766604
143	0xbd3c1a07	-0.04592326
144	0xbcdd024e	-0.026978638
145	0xbdb98e45	-0.09060339
146	0x3d403410	0.04692465
147	0xbd8d04c1	-0.06885672
148	0xbd1b46eb	-0.03790943
149	0x3d362136	0.044465266
150	0x3deed3d3	0.11661496
151	0xbccc85cd	-0.024966145
152	0x3cf6086e	0.030033316
153	0x3d9d3e70	0.07677925
154	0x3dd44a21	0.103657015
155	0xbdce50f9	-0.10074038
156	0x3dd4c72a	0.1038955
157	0x3c0e7477	0.00869476
158	0xbdc87c69	-0.09789354
159	0x3d038df9	0.032117818
160	0xbd48796e	-0.04894393
161	0x3db79b47	0.08965164
162	0x3db9f1c1	0.09079314
163	0xbc756805	-0.0149784135
164	0x3c062beb	0.008189182
165	0x3df0f9e4	0.11766413
166	0xbdc07632	-0.09397544
167	0xbd08085c	-0.033211097
168	0x3dd08e71	0.101834185
169	0x3d1ae65c	0.037817344
170	0x3df8e82a	0.12153657
171	0x3e032e53	0.1281064
172	0x3c6ed24a	0.014576504
173	0x3dd7921d	0.10525916
174	0x3dba2459	0.09088964
175	0x3cd28b61	0.025701227
176	0xbd496902	-0.04917241
177	0x3cae1102	0.021248344
178	0xbe060756	-0.13088736
179	0xbde94698	-0.11390418
180	0xbd2e66fe	-0.04257869
181	0xbda86d67	-0.08223992
182	0xb85259a6	-5.0151393e-05
183	0xbc8058df	-0.015667377
184	0xbde09ab9	-0.10967011
185	0xbde1104c	-0.109894365
186	0x3d3e8c19	0.046520326
187	0xbd402f1d	-0.04691993
188	0xbd87bed0	-0.066281915
189	0xbd36fdd1	-0.044675652
190	0x3da2b763	0.079451345
191	0x3dd99fd1	0.10626186
192	0x3c57158f	0.013127699
193	0x3ce7592a	0.028240759
194	0xbd1c6ec9	-0.03819159
195	0x3c8987a7	0.016788317
196	0x3df135c2	0.117778316
197	0xbd9ef001	-0.07760621
198	0x3dcade33	0.099056624
199	0xbd0a63d3	-0.033786606
200	0x3d8c9fe1	0.06866432
201	0x3e040974	0.12894231
202	0xba387e3d	-0.0007037854
203	0x3dabb3c5	0.08383898
204	0xbc9c5d0a	-0.019087333
205	0xbd603676	-0.054739438
206	0x3d8d1e29	0.06890518
207	0xbd1472e6	-0.03624239
208	0xbaa7e749	-0.0012810017
209	0xbdc0e4a3	-0.09418609
210	0xbd4db324	-0.05021967
211	0x3dadd2b6	0.084874555
212	0x3d71d714	0.059043005
213	0xbd5e881b	-0.05432902
214	0x3d917544	0.07102445
215	0x3c699da5	0.014258777
216	0x3dbffa73	0.09373941
217	0x3decb3b9	0.11557717
218	0x3da37390	0.07981026
219	0x3e0cbe31	0.13744427
220	0x3ccd79e7	0.025082542
221	0x3e10e42d	0.14149542
222	0xbd97e08d	-0.074158765
223	0x3dfea53c	0.1243386
224	0x3d239419	0.03993616
225	0x3d06a2f2	0.03287024
226	0x3d6fb4e3	0.058522116
227	0x3d262646	0.040563844
228	0x3dc4e8a5	0.09614686
229	0x3c627fba	0.013824398
230	0xbdaf800d	-0.085693456
231	0x3cb78ace	0.022405054
232	0xbd66b976	-0.056329213
233	0xbdd80e51	-0.10549606
234	0x3df5ac87	0.119957976
235	0xbda22705	-0.07917599
236	0x3d63d39f	0.05562174
237	0x3d0f8293	0.035036635
238	0x3d4b7f5b	0.049682003
239	0x3d4b068c	0.04956679
240	0x3c9bf395	0.019037047
241	0x3c9a0145	0.018799433
242	0x3cb90df2	0.022589657
243	0xbd567b14	-0.05236347
244	0x3c9837d7	0.018581314
245	0xbd52855e	-0.05139672
246	0x3dae1406	0.08499913
247	0xbdc554a3	-0.09635284
248	0x3df674fb	0.12034031
249	0x3bf52b4f	0.0074819694
250	0xbdfca2e6	-0.12335758
251	0xbd7181d5	-0.058961708
252	0xbca0d00b	-0.019630453
253	0x3e03498c	0.12821025
254	0x3cfb2017	0.03065495
255	0xbd9e4442	-0.07727863

lstm.weight_ih_l1 f4 [256, 64]
0	0xbdcafeff	-0.09911918
1	0x3e177ca5	0.14793642
2	0xbd93912c	-0.07205424
3	0xbc415009	-0.011798867
4	0x3d2fe965	0.04294719
5	0xbdfaf569	-0.122538395
6	0x3d03ea18	0.03220567
7	0x3ddfea9a	0.109334186
8	0xbd1bac1a	-0.038005926
9	0x3dab56a6	0.08366136
10	0xbd01a513	-0.031651568
11	0xbd876a09	-0.066120215
12	0xbdb36635	-0.08759729
13	0x3d447a40	0.04796815
14	0x3cf30635	0.029666046
15	0x3d82dd31	0.06389845
16	0xbd8a6d3b	-0.06759115
17	0xbd3d02df	-0.046145316
18	0xbd1f57d6	-0.038902126
19	0x3d92da07	0.07170492
20	0x3d99df69	0.07513315
21	0xbcc87528	-0.024469927
22	0x3d4fbe7e	0.050718777
23	0x3e0c8ba2	0.1372514
24	0xbdf6a67a	-0.12043472
25	0xbcba43aa	-0.022737343
26	0x3cf81e2e	0.030287828
27	0xbd7b9e21	-0.0614301
28	0xbcf3677a	-0.029712427
29	0xbdc7bfec	-0.09753403
30	0xbc123265	-0.008923148
31	0x3ae93779	0.0017793021
32	0x3d88add6	0.066737816
33	0x3dd0cc5c	0.101952285
34	0xbd87d88d	-0.06633101
35	0x3c8cfa35	0.017209152
36	0x3dde3277	0.10849469
37	0x3c6a46e9	0.014299133
38	0xbd9a225f	-0.07526087
39	0xbd81e8fc	-0.06343266
40	0x3c95d7a0	0.018291295
41	0x3d6113d0	0.054950535
42	0xbd903b5b	-0.07042571
43	0x3dcd78bf	0.10032796
44	0x3dd24053	0.10266175
45	0xbc3bc01f	-0.011459379
46	0x3c77d51c	0.015126493
47	0x3dd6f267	0.10495453
48	0x3deb5569	0.114909
49	0x3dab5814	0.08366409
50	0x3a1fbee1	0.0006093812
51	0xbd2703b2	-0.04077501
52	0xbb9c1f3a	-0.0047644647
53	0xbc4ecc44	-0.012621943
54	0x3e00f0d3	0.12591867
55	0x3dc8e5f0	0.09809482
56	0xbdb7a0db	-0.089662276
57	0x3ddb7ee4	0.10717562
58	0x3d80018f	0.06250297
59	0x3d72562c	0.05916421
60	0xbc7589df	-0.014986484
61	0xbd784fc1	-0.060622934
62	0xbda3f1e8	-0.08005124
63	0xbba89789	-0.0051450175
64	0x3d7cd821	0.061729554
65	0x3d571e30	0.052519023
66	0x3dc3898e	0.09547721
67	0xbe106b4d	-0.14103432
68	0xbd305006	-0.043045066
69	0x3de14643	0.109997295
70	0x3daac6ab	0.08338674
71	0xbd728469	-0.059208307
72	0xbc8cfbd2	-0.017209921
73	0x3a49a42d	0.00076920056
74	0x3ab145eb	0.0013524865
75	0x3d674bca	0.056468762
76	0xbd649615	-0.055807192
77	0x3b94784f	0.0045309435
78	0x3e16e114	0.14734298
79	0xbdc1362c	-0.094341606
80	0xbaf9c308	-0.0019055316
81	0x3d5ad61f	0.053426858
82	0x3dc0933c	0.09403083
83	0xbca25fd3	-0.019821083
84	0x3d06dbbe	0.032924406
85	0x3db95d17	0.090509586
86	0xbd6ff078	-0.05857894
87	0xbda84274	-0.082158
88	0x3d41c3e0	0.04730594
89	0xbcce9fa4	-0.025222607
90	0x3d1c34db	0.038136344
91	0xbc770ade	-0.0150782745
92	0x3d3172c0	0.043322325
93	0xbd98aaca	-0.074544504
94	0x3de89538	0.11356586
95	0xbdab6fa9	-0.08370907
96	0xbde62fa5	-0.11239556
97	0xbc5cd11c	-0.01347759
98	0x3deb5fe2	0.114928976
99	0x3e3e50f7	0.18585573
100	0xbd4fcc0e	-0.05073171
101	0x3e08ad62	0.1334739
102	0x3e1a960e	0.15096304
103	0xbdc41c3f	-0.095757
104	0x3d20216c	0.039094374
105	0x3e003ff8	0.12524402
106	0x3c908b3f	0.017644523
107	0x3de95890	0.11393845
108	0x3dd82fce	0.10555993
109	0x3da0fd5b	0.07860824
110	0xbd759e1b	-0.059965234
111	0xbd979d42	-0.074030414
112	0xbd9599e0	-0.0730474
113	0x3c60663c	0.01369625
114	0x3d5a54bf	0.053303476
115	0x3d73b76e	0.059501104
116	0xbdd99f0e	-0.106260404
117	0x3cfd880c	0.030948661
118	0x3d483bf1	0.04888529
119	0x3d91b435	0.0711445
120	0x3d10cd70	0.03535217
121	0xbd9b52c3	-0.07584145
122	0x3de2762c	0.11057696
123	0xbd07fa1b	-0.033197504
124	0xbad36b97	-0.0016130087
125	0xbd4c28b4	-0.049843505
126	0x3ce2e0ad	0.027695024
127	0xbda695a2	-0.08134009
128	0x3c7e12ed	0.015507442
129	0xbd72e3c4	-0.059299245
130	0xbdaa3cdb	-0.083123885
131	0xbd8e910e	-0.06961261
132	0xbb340a84	-0.0027472088
133	0xbd56e1c7	-0.05246141
134	0x3d973c0f	0.07384502
135	0x3dc6e05b	0.09710761
136	0x3b7e1dad	0.0038775012
137	0x3dac5e0e	0.08416377
138	0x3d2da090	0.042389452
139	0xbd893cce	-0.06701051
140	0xbe01ea72	-0.1268709
141	0x3cf6f709	0.030147092
142	0xbd4f9681	-0.05068064
143	0x3b9847a9	0.0046472144
144	0xbc1b6776	-0.009485116
145	0x3cf35712	0.029704604
146	0x3cf81514	0.030283488
147	0x3df3eb25	0.11910085
148	0xbdd89174	-0.10574618
149	0x3d9dc384	0.07703307
150	0x3e0a4e7a	0.13506499
151	0x3d22e096	0.039764963
152	0xbd0c1f7d	-0.034209717
153	0xbbb995e3	-0.00566362
154	0x3df8d4ab	0.12149938
155	0x3cffae8c	0.03121116
156	0xbbc51250	-0.006014146
157	0x3d5427da	0.051795818
158	0x3d1e09fb	0.038583737
159	0x3cccc77a	0.024997462
160	0x3da2bae4	0.07945803
161	0xbd354942	-0.044259317
162	0x3dac5817	0.08415239
163	0x3de4ac3e	0.11165665
164	0x3b993f72	0.0046767527
165	0xbdab2786	-0.08357148
166	0x3ddbd562	0.10734059
167	0x3c3cf84f	0.011533811
168	0x3dcb1aa3	0.0991719
169	0xbd8681f5	-0.06567756
170	0xbdcb1d36	-0.09917681
171	0x3d08cddc	0.033399448
172	0x3dfe8c3e	0.12429093
173	0xbbfe522f	-0.007761262
174	0x3cfb3d48	0.03066887
175	0x3d113c42	0.035457857
176	0xbdea230d	-0.11432467
177	0xbda8d6e2	-0.08244111
178	0xbe00cd11	-0.12578227
179	0x3da74ea1	0.08169294
180	0x3920ab54	0.00015322614
181	0x3e046664	0.12929684
182	0xbd7d7f6d	-0.0618891
183	0xbdce2221	-0.10065103
184	0x3d55891d	0.052132715
185	0x3d6a6537	0.057225432
186	0xbd46bea5	-0.048521657
187	0xbdae9452	-0.085243836
188	0xbde0133e	-0.1094117
189	0x3db92827	0.090408616
190	0xbdbefac4	-0.093251735
191	0x3b511d2d	0.003190826
192	0x3dc6418c	0.09680471
193	0x3d965bf2	0.07341756
194	0x3db6e626	0.08930616
195	0xbab8bc68	-0.0014094235
196	0x3c1ebbd9	0.009688341
197	0xbde54893	-0.11195483
198	0xbdbaf619	-0.09128971
199	0x3df7eda8	0.12105876
200	0x3d9bae67	0.07601624
201	0x3cde9455	0.02717034
202	0x3dd34dfb	0.10317608
203	0xbdab75ba	-0.08372064
204	0xbdb0ed06	-0.08638959
205	0x3d3bb910	0.045830786
206	0x3d8d4844	0.06898549
207	0xbdb34562	-0.08753468
208	0xbd5acef8	-0.053420037
209	0xbe0086d8	-0.12551439
210	0xbcfac8f3	-0.030613398
211	0x3be8e297	0.0071070897
212	0xbd976386	-0.073920295
213	0xbaee17be	-0.0018165035
214	0x3dcdf581	0.10056592
215	0x3b8e7c72	0.004348331
216	0x3b4f055f	0.0031588895
217	0xbe293c2c	-0.1652686
218	0xbdaf853e	-0.08570336
219	0x3ca47c5b	0.020078829
220	0x3db2f509	0.08738143
221	0xbdec016d	-0.115237094
222	0xbd3df9c4	-0.046380773
223	0xbd431b07	-0.047633197
224	0x3d204fce	0.039138608
225	0x3bbd595b	0.0057784743
226	0x3d8ad9e4	0.067798406
227	0xbcbdd360	-0.02317208
228	0xbd83e8d2	-0.06440891
229	0x3e129ccf	0.1431763
230	0xbd8b6c79	-0.06807799
231	0xbdef5d0c	-0.11687669
232	0x3a7dbcc0	0.000967931
233	0xbdc88edb	-0.097928725
234	0x3d0f6163	0.035004985
235	0x3d29714b	0.04136781
236	0x3c93b72b	0.018031677
237	0x3d4b6a64	0.04966201
238	0x3d04f820	0.032463193
239	0x3ddadbcf	0.106864564
240	0xbcfbbd23	-0.030729836
241	0x3d3a664c	0.045507714
242	0xbde04c04	-0.10951999
243	0xbdc2d31f	-0.095129244
244	0xbd1b4d3a	-0.037915446
245	0x3dceb031	0.100921996
246	0xbc885864	-0.01664371
247	0xbd074344	-0.033023134
248	0x3d69f557	0.05711874
249	0x3d9a1a51	0.07524551
250	0x3c48b6c5	0.012250607
251	0x3dbe6690	0.09296906
252	0x3d30668a	0.04306654
253	0x3bb4b5e0	0.0055148453
254	0xbd29691d	-0.04136001
255	0xbd8d87e1	-0.069106825

lstm.weight_hh_l1 f4 [256, 64]
0	0x3dcacc7f	0.09902286
1	0x3d9820b3	0.07428112
2	0xbd430311	-0.047610346
3	0xbe00c9fd	-0.12577052
4	0xbd29d5db	-0.041463714
5	0xbd984edc	-0.07436916
6	0x3d94750c	0.072488874
7	0x3d9abccf	0.07555544
8	0x3e0bddf5	0.13658889
9	0xbe07b565	-0.1325279
10	0x3db3f6ad	0.08787284
11	0xbd70d4bd	-0.058796633
12	0x3d7f1039	0.06227133
13	0xbcd27153	-0.025688803
14	0x3c877fb7	0.016540391
15	0xbde6294d	-0.11238346
16	0xbd1c740b	-0.038196605
17	0x3d6fd8e4	0.058556452
18	0xbda7c697	-0.08192175
19	0x3daf9e50	0.085751176
20	0x3cea7d39	0.028624164
21	0x3dd4ba2b	0.10387071
22	0x3da667a0	0.08125234
23	0x3d087c11	0.033321444
24	0xbd966404	-0.07343295
25	0xbd970620	-0.07374215
26	0xbdefd00a	-0.11709602
27	0x3c34221a	0.010994459
28	0x3e02df5d	0.12780519
29	0xbb49f836	-0.0030818111
30	0xbd82a71a	-0.06379528
31	0xbdac0a18	-0.08400363
32	0xbcb36af2	-0.021901581
33	0xbdf572eb	-0.119848095
34	0xbcc48248	-0.023987904
35	0x3bc7542f	0.0060830335
36	0xbdc62f5b	-0.09677001
37	0x3cd661c8	0.026169673
38	0x3dd36241	0.10321475
39	0xbc0218a9	-0.00794045
40	0xbdeb4d11	-0.114893086
41	0x3d2f6ffb	0.042831402
42	0xbdbd4d84	-0.092433006
43	0x3dd66199	0.10467834
44	0xbb8a783f	-0.00422576
45	0x3d433997	0.047662344
46	0x3de3ede4	0.111293584
47	0xbdd94a8b	-0.10609921
48	0xbd6cb1aa	-0.05778662
49	0x3de2d769	0.110762425
50	0x3c5ceb4b	0.013483833
51	0xbc706067	-0.014671422
52	0xbd9d1e30	-0.076717734
53	0xbdec4573	-0.11536684
54	0x3e013733	0.12618713
55	0xbdd37e79	-0.10326857
56	0x3de15e75	0.110043444
57	0xbdc9e071	-0.09857262
58	0x3d3059a2	0.04305423
59	0xbd79c867	-0.060982134
60	0xbe0d432a	-0.13795152
61	0xbcb78c39	-0.02240573
62	0xbd9453a9	-0.072425194
63	0x3dc393fc	0.0954971
64	0x3d23b2ab	0.039965313
65	0xbddb1285	-0.10696892
66	0x3cec3396	0.028833192
67	0xbd668f56	-0.05628904
68	0x3dac2073	0.08404627
69	0xbda8f18f	-0.08249199
70	0xbbbe6991	-0.0058109243
71	0xbd87697b	-0.06611916
72	0xbdb86ddc	-0.09005329
73	0x3dc6d10c	0.09707841
74	0x3cb8143f	0.022470592
75	0xbc0cae59	-0.00858649
76	0xbd8c1cf6	-0.06841461
77	0xbd3aa080	-0.04556322
78	0xbcdd6414	-0.02702526
79	0x3dda8966	0.10670738
80	0x3cd9b35f	0.026574789
81	0x3dc911b8	0.09817833
82	0xbd0849c0	-0.03327346
83	0x3c9e40ab	0.019317945
84	0x3db10588	0.08643633
85	0x3df58458	0.11988133
86	0xbd1c3136	-0.03813287
87	0xbdba3a4f	-0.09093153
88	0xbe041d15	-0.12901719
89	0x3dc29a5c	0.09502098
90	0xbc6f2dac	-0.014598291
91	0x3d5fdfbc	0.05465673
92	0xbd171e0e	-0.036893897
93	0x3daf20fa	0.08551212
94	0xbcb1bc7d	-0.021696324
95	0x3bfa1d9d	0.0076329247
96	0xbdc24dd7	-0.09487503
97	0x3dcf7c4b	0.10131129
98	0xbde8327f	-0.11337756
99	0x3dc42683	0.09577658
100	0x3d07c84e	0.03315001
101	0x3da4fc2a	0.08055909
102	0xbc4f2b1c	-0.012644555
103	0xbd9a8231	-0.07544363
104	0x3e062e00	0.13103485
105	0x3da3c2dd	0.079961516
106	0xbd9e43af	-0.07727753
107	0x3d94fc79	0.07274718
108	0x3da88dea	0.08230193
109	0xbd44d9f6	-0.048059426
110	0xbde4a75d	-0.111647345
111	0xbaa7985c	-0.0012786495
112	0xbc6b3c31	-0.0143576125
113	0x3d16bcb2	0.036801048
114	0x3d1ef403	0.038806926
115	0x3d52f2ae	0.05150097
116	0x3dc14f19	0.09438915
117	0x3da19f82	0.07891752
118	0xbd6dd84d	-0.05806761
119	0x3d8f994b	0.0701166
120	0x3cc89ff2	0.02449033
121	0xbd43408a	-0.04766897
122	0x3d9bcb9a	0.07607193
123	0x3cb8c1c8	0.02255334
124	0xbc945391	-0.018106254
125	0x3bd306a1	0.006439999
126	0x3ced5eb8	0.02897583
127	0x3db9b366	0.09067421
128	0x3dcfe72d	0.10151515
129	0x3d204353	0.039126705
130	0x3dc08936	0.09401171
131	0xbdca48f4	-0.09877196
132	0xbdb04cae	-0.086083755
133	0xbdfbbe57	-0.12292164
134	0x3b11b479	0.0022232814
135	0x3dd86118	0.10565394
136	0xbd47eedf	-0.04881179
137	0xbde43ad0	-0.1114403
138	0x3c85ac8e	0.016317632
139	0xbdbb9403	-0.0915909
140	0xbccfc9d3	-0.025364792
141	0x3948c1f4	0.0001914574
142	0x3d87af0a	0.06625183
143	0x3c0036ef	0.007825597
144	0xbdf1cef4	-0.11807051
145	0x3dc099e9	0.09404356
146	0x3c247b25	0.010039126
147	0xbab07646	-0.0013462983
148	0x3cd09fc6	0.02546681
149	0xbd0f7a04	-0.035028473
150	0x3d777ee8	0.06042376
151	0x3dfe8bc1	0.12429
152	0x3d93e68a	0.07221706
153	0xbdcb5601	-0.09928513
154	0x3bb4d4b2	0.0055185193
155	0xbd3e029d	-0.04638921
156	0x3de7b585	0.11313919
157	0x3d998607	0.07496267
158	0xbcd79e7b	-0.026320687
159	0x3dd55757	0.104170494
160	0x3d859ba8	0.0652383
161	0xbd9fe5eb	-0.07807525
162	0x3dada229	0.08478195
163	0xbca08bff	-0.019598005
164	0x3c61ee8d	0.013789785
165	0x3b75a52e	0.0037482488
166	0xbd90f054	-0.07077089
167	0xbd013400	-0.03154373
168	0x3dbdb763	0.09263494
169	0x3d9a4b8e	0.07533942
170	0x3dcdd8c4	0.100511104
171	0x3df8f0f0	0.1215533
172	0x3d9fd8d5	0.07805029
173	0xbdd9c6fc	-0.106336564
174	0x3cb4b89e	0.022060689
175	0xbcbdc8b8	-0.023167
176	0x3df30c9b	0.11867639
177	0x3c45bb08	0.0120685175
178	0xbdd35299	-0.10318489
179	0x3dc0ba03	0.09410479
180	0x3d96ac25	0.07357053
181	0xbde5d44b	-0.11222132
182	0xbd570a99	-0.05250034
183	0xbca4196b	-0.020031651
184	0xbcfc3886	-0.030788671
185	0x3ca0ea4d	0.019642973
186	0x3dfa232c	0.1221374
187	0xb83f4780	-4.5604538e-05
188	0x3dc68193	0.09692683
189	0x3d716cfa	0.05894182
190	0x3dd2ad62	0.102869764
191	0x3d8f885a	0.07008429
192	0x3de785e8	0.113048375
193	0x3cb93459	0.02260797
194	0x3c762db3	0.015025544
195	0x3dae823f	0.08520936
196	0x3dc6ec96	0.09713094
197	0x3c43ae76	0.01194345
198	0x3db9f9cc	0.09080848
199	0xbc2f6e17	-0.0107074
200	0x3d1f3140	0.038865328
201	0xbdb19b3d	-0.086721875
202	0x3d987ff6	0.074462816
203	0x3bd2a32b	0.0064281425
204	0x3d19af37	0.037520614
205	0x3d8b9e2a	0.06817277
206	0x3d6df0b7	0.05809089
207	0x3deab428	0.11460143
208	0xbd43dcab	-0.047817867
209	0x3d89cd7e	0.06728648
210	0xbd5c2e51	-0.05375511
211	0x3d07a6b6	0.033117972
212	0x3c70e7d8	0.014703713
213	0xbde3fd5c	-0.11132309
214	0xbdd52aeb	-0.104085766
215	0x3d6272ef	0.05528539
216	0x3caafcb4	0.020872451
217	0xbd38bee2	-0.045103915
218	0x3e0716ea	0.13192335
219	0x3de5b639	0.11216397
220	0xbddf85ea	-0.10914214
221	0x3ce0e352	0.027452145
222	0xbd23a2d7	-0.039950218
223	0xbd4e9f4d	-0.05044489
224	0x3b52a290	0.0032140352
225	0x3d4cdcb8	0.05001518
226	0xbd51b36d	-0.051196504
227	0x3db7e353	0.089789055
228	0x3d44b63b	0.04802535
229	0xbdc47122	-0.09591891
230	0xbdde6ff1	-0.10861195
231	0xbd362238	-0.044466227
232	0x3dcf1f9a	0.101134494
233	0xbd4626cf	-0.048376855
234	0x3dbbdc10	0.09172833
235	0x3c49422e	0.012283845
236	0x3d249b80	0.04018736
237	0xbd4bdf9b	-0.049773794
238	0x3d897581	0.06711865
239	0x3d4e8c23	0.050426614
240	0xbdd6a4f1	-0.10480679
241	0x3e01f1c5	0.12689884
242	0xbd51cb6b	-0.051219385
243	0xbd6a93f6	-0.057270013
244	0xbca42e0f	-0.020041494
245	0x3d065ecb	0.032805245
246	0xbdac59e2	-0.08415581
247	0xbd67c018	-0.05657968
248	0x3d785091	0.06062371
249	0x3d9d17ab	0.0767053
250	0x3c8e5fff	0.017379759
251	0xbd2e83a3	-0.042606007
252	0xbdcccba2	-0.099997774
253	0xbdc4d544	-0.0961099
254	0xbd207c7c	-0.039181218
255	0xbdd7673c	-0.10517737

lstm.bias_ih_l1 f4 [256]
0	0xbd9c68b1	-0.07637156
1	0xbd35b06f	-0.044357713
2	0x3ddc7b08	0.10765654
3	0xbd1a84bd	-0.037724245
4	0x3caa248e	0.020769384
5	0x3d9f422b	0.077762924
6	0xbc5f8311	-0.0136420885
7	0x3dee02f0	0.11621654
8	0x3dc3d41a	0.095619395
9	0xbd6f0412	-0.05835349
10	0xbb453c90	-0.0030095913
11	0x3d9331fb	0.071872674
12	0x3dd25b2a	0.102712944
13	0xbdec0407	-0.11524206
14	0xbd3230ae	-0.043503456
15	0x3d9eb7fd	0.07749937
16	0x3d83ae87	0.06429773
17	0x3e037d97	0.12840877
18	0x3d080ac3	0.03321339
19	0x3d5f9f06	0.054595016
20	0xbc0019c3	-0.007818642
21	0x3dbddb1e	0.09270309
22	0x3e09526c	0.13410348
23	0x3d0a84c0	0.033818007
24	0x3b871f58	0.0041236095
25	0x3dd777b2	0.10520877
26	0xbc133769	-0.008985379
27	0x3dadad78	0.08480352
28	0x3de65d87	0.11248308
29	0xbd719925	-0.05898394
30	0x3cacfe1f	0.021117268
31	0x3d2693ba	0.040668227
32	0xbdcb4631	-0.09925497
33	0xbd71782c	-0.058952495
34	0xbc8045b5	-0.015658239
35	0xbd53667b	-0.051611405
36	0xbd0b7aaa	-0.03405253
37	0xbcfe7706	-0.031062614
38	0xbdbecda2	-0.09316565
39	0x3c8b5458	0.017007992
40	0x3d141bc0	0.036159277
41	0xbdb38465	-0.08765487
42	0x3cdf8cf6	0.027288895
43	0x3d58c7e4	0.052925006
44	0x3cba58f6	0.022747498
45	0x3e0dbf91	0.13842608
46	0xbdcb8f77	-0.09939473
47	0xbdb01e17	-0.08599489
48	0xbda4a426	-0.08039121
49	0x3a835d88	0.0010022381
50	0x3db322b2	0.08746852
51	0x3ca6f77c	0.020381682
52	0x3db1be3f	0.08678865
53	0xbbd67cd6	-0.0065456433
54	0xbd6aadd6	-0.05729469
55	0xbd51edd3	-0.051252197
56	0x3dcf055e	0.101084456
57	0x3c784f7a	0.015155667
58	0x3c9dc771	0.01926014
59	0x3dbf7109	0.093477316
60	0x3c8cee77	0.017203553
61	0xbde9c964	-0.11415365
62	0x3c51f813	0.012815493
63	0xbd05f55a	-0.03270469
64	0x3d8a433e	0.06751107
65	0xbd382ac5	-0.044962663
66	0x3cbec9fa	0.02328967
67	0x3d4e0ad8	0.05030331
68	0x3ddff354	0.10935083
69	0xbdcc327c	-0.09970567
70	0xbce84301	-0.028352262
71	0xbd09d021	-0.033645753
72	0x3dbdbd18	0.092645824
73	0x3dd2def2	0.1029643
74	0xbe00f396	-0.1259292
75	0x3d517f5e	0.051146857
76	0x3d6b7e11	0.057493273
77	0x3dbdf286	0.09274773
78	0xbcb73cb1	-0.022367807
79	0x3deff266	0.11716156
80	0xbbd13165	-0.006384062
81	0xbdc904f3	-0.09815397
82	0x398333af	0.00025024774
83	0xbd6aa617	-0.057287302
84	0x3cbae172	0.022812579
85	0xbc86d93e	-0.016461011
86	0x3bea6e8f	0.007154293
87	0xbdc6d230	-0.09708059
88	0x3de91d21	0.11382509
89	0x3d7ceac2	0.06174732
90	0xbd28fb4c	-0.04125528
91	0x3d96c882	0.073624626
92	0x3c3d5be9	0.011557558
93	0x3d3b2ac2	0.045695074
94	0xbc822e27	-0.015891148
95	0x3de788d9	0.113053985
96	0xbd9cdd4c	-0.076593965
97	0x3de7b4a1	0.11313749
98	0xbdba51e3	-0.0909765
99	0x3d05ca36	0.032663547
100	0x3d59680b	0.05307774
101	0xbd98cbd5	-0.07460753
102	0x3dc23247	0.09482246
103	0xbd94e1ab	-0.07269605
104	0x3d5d3abd	0.054011095
105	0x3d8a9d11	0.06768239
106	0x3b33d66c	0.0027441038
107	0x3d9608de	0.0732591
108	0xbe0d8858	-0.13821542
109	0x3de63ede	0.1124246
110	0xbd5bb787	-0.053641822
111	0x3d2b4423	0.041813027
112	0x3d9323e0	0.07184577
113	0xbdc93cf6	-0.098260805
114	0xbd3f1253	-0.046648335
115	0xbd7bbb21	-0.061457757
116	0xbdf352c6	-0.11881022
117	0xbc47850f	-0.01217772
118	0xbd439d80	-0.047757626
119	0xbddf818f	-0.10913383
120	0xbd93d3ad	-0.07218108
121	0x3d9da856	0.07698123
122	0x3a801996	0.000977325
123	0xbd84e0c3	-0.064881824
124	0x3d84076e	0.064467296
125	0x3c98a860	0.018634975
126	0x3da34434	0.07971993
127	0xbdfad3df	-0.122474425
128	0x3d2f7049	0.042831693
129	0x3cd04c9d	0.025427157
130	0x3a599e7c	0.0008301509
131	0xbde59df2	-0.11211766
132	0xbdfda8e2	-0.123857275
133	0x3dbd8319	0.092535205
134	0x3d25789d	0.04039823
135	0x3dd199dd	0.10234425
136	0x3ca182b0	0.019715637
137	0x3c80741c	0.015680365
138	0xbdd77a45	-0.10521368
139	0xbbd2b5d9	-0.0064303693
140	0x3dd293ea	0.102821186
141	0x3d82e62a	0.063915566
142	0xbd9d5fe4	-0.07684305
143	0xbbd99a17	-0.0066406834
144	0xbd5a03d1	-0.053226296
145	0x3cbb3c0f	0.022855787
146	0x3d16e616	0.03684052
147	0x3e03718a	0.1283628
148	0x3dc7874b	0.09742602
149	0x3d2d6327	0.042330887
150	0xbd27070c	-0.040778205
151	0x3de31059	0.110871024
152	0x3c9cdbe3	0.019147819
153	0x3d30a839	0.04312918
154	0x3df2a885	0.11848549
155	0xbc72976d	-0.0148066105
156	0x3d2e5e34	0.042570308
157	0x3d6d27bd	0.057899226
158	0xbdb380c9	-0.08764798
159	0x3dbb4fa6	0.09146051
160	0xbcde5b15	-0.02714304
161	0xbd3b75ee	-0.045766763
162	0xbd5b3f13	-0.05352695
163	0x3dd8e84c	0.10591182
164	0xbd13a1da	-0.036043026
165	0x3dccdf67	0.10003548
166	0x3da308a5	0.07960633
167	0xbdfb9c03	-0.12285616
168	0xbe033e97	-0.12816845
169	0xbd4543e7	-0.04816046
170	0xbd426b0d	-0.047465373
171	0xbc6f0d67	-0.014590598
172	0x3c5e2af9	0.01356005
173	0xbdd09a67	-0.101857
174	0xbdcb3a0f	-0.09923183
175	0xbdb998a2	-0.090623155
176	0x3ca790d5	0.020454803
177	0xbda76e05	-0.081752814
178	0x3e05670d	0.13027592
179	0x3d628fbc	0.055312857
180	0x3cce0a82	0.025151495
181	0xbca629e1	-0.020283641
182	0x3d8f5364	0.069983274
183	0x3c4a3bb2	0.012343334
184	0xbdd1d16e	-0.10245024
185	0x3da36318	0.07977885
186	0xbd82ec48	-0.06392723
187	0xbd5d86d9	-0.05408368
188	0xbdc39514	-0.09549919
189	0xbd87c71d	-0.06629775
190	0xbdd4e0a7	-0.103944115
191	0xbe0814ed	-0.13289233
192	0xbdb0eff2	-0.08639516
193	0xbdcbdfbc	-0.09954783
194	0x3c87a833	0.016559696
195	0xbbe950dd	-0.0071202354
196	0x3d84fa11	0.06493009
197	0xbdd1529f	-0.10220837
198	0x3c9c1dff	0.019057272
199	0x3d0b6337	0.034030166
200	0x3dfdfc35	0.1240162
201	0xbb2a77c9	-0.002601134
202	0xbcbbac6e	-0.02290937
203	0x3e0bd478	0.13655269
204	0x3dad7d61	0.0847118
205	0x3df46a81	0.119343765
206	0x3c9967b3	0.018726205
207	0x3def423e	0.116825566
208	0x3c1215e6	0.008916354
209	0x3db9e2b4	0.09076443
210	0xbd8d0681	-0.06886006
211	0xbd8836c4	-0.06651071
212	0x3dcf10f8	0.101106584
213	0x3d8e2ab9	0.069417424
214	0x3c8a6ca8	0.016897514
215	0xbb399078	-0.002831487
216	0x3cc04abb	0.023473134
217	0x3d0eae48	0.034834176
218	0xbd51f80a	-0.05126194
219	0xbbca5177	-0.006174262
220	0xbda97bc4	-0.082755595
221	0xbde2502b	-0.11050447
222	0xbd0aa8ab	-0.03385226
223	0x3d07b7f3	0.033134412
224	0xbd980154	-0.07422128
225	0xbd56528d	-0.05232482
226	0x3dd7697f	0.10518169
227	0x3df13866	0.11778335
228	0xbd6da89a	-0.05802212
229	0x3da80ec5	0.08205942
230	0x3d9132e5	0.070897855
231	0x3d48bfc3	0.049011003
232	0x3d92c719	0.07166881
233	0xbdba3f3f	-0.090940945
234	0xbd9afd2f	-0.07567822
235	0xbdf54f61	-0.11978031
236	0x3c8e518a	0.017372865
237	0x3d9cb48b	0.07651623
238	0x3d6dc843	0.058052313
239	0xbddd3220	-0.10800576
240	0x3cf145f5	0.029452303
241	0x3dffa557	0.12482708
242	0xbda39466	-0.07987289
243	0x3d6d54ed	0.05794232
244	0x3dd317bc	0.10307261
245	0xbd992587	-0.07477861
246	0xbdc2185b	-0.09477302
247	0x3bccfd03	0.0062557473
248	0xbd41e6de	-0.047339313
249	0xbd5e6943	-0.054299604
250	0x3cb64944	0.022251733
251	0xbdb5c086	-0.088746116
252	0x3de7c3a2	0.11316611
253	0xbde0837b	-0.10962578
254	0x3cb5afe0	0.02217859
255	0xbd87419d	-0.066043116
