models/multiticker_lstm.pt (torch, 842773 bytes, 9 tensors)

lstm.weight_ih_l0 f4 [512, 21]
00000000: 91a0 7e3d dac9 b03d 5fe2 3f3d f565 3e3c
00000010: b248 e43c 8898 07bb bac3 b83d 2c2b af3d
00000020: 0520 753d 1869 7cbd aae8 653d 6682 da3c
00000030: 81d6 373d 51ed 6f3d cf69 4c3d 175c 7b3d
00000040: aa94 b2bd df11 8c3d 6357 b5bd e643 f63d
00000050: 882b 073d 5553 1c3b 1c80 643d 7d28 0bbd
00000060: f90c 763d c4ce 5a3d 0561 0d3d c0a7 1c3d
00000070: 7476 4fbc d6dc 97bb daaf 293c 5b1b 443d
00000080: 7b3c ebbc b5e7 50bd 29c2 3ebd 1ad8 3dbd
00000090: 3a64 9e3d 25b0 9ebd d84f 45bb 857b febc
000000a0: 348d 37bd 8a3c c23c dd1b bd3d 4692 dcbc
000000b0: 784d 9bbc 5326 dbbc 3688 ac3d b845 72bc
000000c0: b5f9 e23d 6708 7bbb 3a34 963d bf91 b93c
000000d0: 24bf 26bd 385e 553c 0cd4 c8bc 804a 833d
000000e0: 11ab 0dbd a964 6b3d d926 5cbc d72c b73d
000000f0: 07ab 00bd 796e 1b3d 17e7 c23d 2a19 2c3d
00000100: 438b 0bbd b14f c03d de6d 64bd c141 cebc
00000110: 25cc 5cbb 9760 ae3c 78f1 853c 482d 483d
00000120: 5479 b8bd cdf6 9dbd bb4b d33c c2f1 bcbb
00000130: 29b2 2f3d 74ff 5cbd 77a9 cd3d b0cc 66bd
00000140: f840 593d 2de7 5ebd c7c6 6fbd cf1a 8e3d
00000150: 9f62 90bd fd81 8a3c 8af6 43bc 899e 543d
00000160: 3ad4 6b3d 1551 a0bd 13eb b6bc 3d51 78bc
00000170: 9422 c4bd 16df 2e3d 6b9c 683c 0e77 e83c
00000180: 0f03 63bd cc0c 913c e2b1 05bd c747 9dbc
00000190: 9cec 393d a90d 3a3d 590a 13bd 41bd e4bd
000001a0: 4db3 66bd 6a9f babd 6c88 8b3d 2fac 5f3d
000001b0: 7657 f23c 9600 bf3c f63a 793d 6425 2abd
000001c0: b842 04bd f364 ac3d 5350 09bd 1ec1 00bd
000001d0: e247 683d f114 cebc e40f db3c e0a1 523c
000001e0: 1a8e 083d 2f6f aabd 2da9 dcbb 314a b2bd
000001f0: af59 09bd db46 eb3c 0007 84bd 6111 b43c
00000200: 6a9e 47bd 8528 42bc d480 c7bd 60c4 0fbc
00000210: 090d f7bc 0254 813d fbf6 683c 811d 84bd
00000220: 8bed 8bbd 5ae9 b4bd 7714 69bb 007a b2bd
00000230: 6ff5 2b3d a04a cabd 0b18 143d 0951 bfbc
00000240: 3134 dc3d 37d8 33be 8b92 483d 7ea7 cabb
00000250: ae18 03bc dc38 1ebd 4033 2cbb 0eb2 893c
00000260: 1241 65bd 2f17 17bd 21f4 bd3c 2201 22bd
00000270: 22f0 2bbc 8be4 71bd 9507 80bc 6c6b 81bd
00000280: 15bf fbba 745b fdbc 85c2 d2bc 9352 5bbc
00000290: 21c4 3bbd 397f bbbb a0c8 cb3d 1d6d a0bb
000002a0: c10c 833c 8e95 e0bc ea61 17bd 70a8 9dbd
000002b0: 57f0 ba3d b2f6 9bbb 8f64 5b3d accc 9d3d
000002c0: 2196 723c 1e7f c03d cb2b ebba d6ec c2bd
000002d0: bf97 b63d c01f 703d 40df 98bd cf99 b13c
000002e0: 8edd 863d 499f 253d 471b 2fbc 3949 693d
000002f0: dc46 89bd aaa6 a9bd 891a 23bd 5ddb 7bbd
00000300: 1ffb b4ba 06ee 9d3a 8a57 9c3d f942 813a
00000310: 07e2 9cbb f12d 3bbd 5f25 0cbd cdb9 d03c
00000320: 6bbf 8dbd a8b6 193d d2c2 75bd c982 c3bd
00000330: ef38 5a3c 7620 01be 0903 31bd 589b 713c
00000340: 7204 8e3d 3dac d33c 4fce 6dbd e171 a1bd
00000350: f52d 473c 53fe dbbc 1a66 4ebd a347 9a3d
00000360: e08f 99bb 74db 56bd 4086 7bbb b77f 64bc
00000370: 1d1f ddbc 50fb 313d a0bf 23bd 8c6e ad3c
00000380: e292 af3d 23f9 a83d cf8e 24bd 59ff 90bd
00000390: b387 fa3b b96f 193c 3b96 74bd a838 db3c
000003a0: e267 8e3d 4a81 523d 7e9c e2bb dd60 83bd
000003b0: 72e8 88bc 3861 4c3d 7053 333d 49a6 3b3d
000003c0: f4cc c33d 156f 80bd 67f7 9bbc 228f ea3c
000003d0: ebf3 b4bc 7e22 3b3c 43e2 23bd abf7 7dbd
000003e0: 6100 19bd 85d5 18bd df4d ef3c 7e97 7ebd
000003f0: bbe3 f03a d8ec fd3c 0d02 0cbd 5790 4b3c
0.062164847 0.0863225 0.046846744 0.011620988 0.027866695 -0.002069028 0.09021707 0.08553156
0.05984499 -0.061623663 0.05613009 0.026673507 0.0448823 0.058575932 0.049905594 0.06136712
-0.08719762 0.06839346 -0.08854558 0.12024669 0.0330005 0.002385338 0.055786237 -0.03397416
0.060070965 0.053419843 0.034516353 0.038245916 -0.012662519 -0.00463448 0.010356868 0.04787765
-0.028715363 -0.051002223 -0.046571884 -0.04634867 0.077339604 -0.07748441 -0.0030107405 -0.031064758
-0.044812396 0.023710508 0.0923383 -0.026925217 -0.018957838 -0.026751673 0.08424418 -0.01478713
0.11082784 -0.0038304569 0.0733418 0.022652505 -0.04070963 0.013022952 -0.024515174 0.06410694
-0.03458697 0.057469044 -0.013436996 0.089440994 -0.031413104 0.03794715 0.09516733 0.042016186
-0.034068357 0.093902 -0.05576884 -0.025177838 -0.0033691016 0.021286292 0.016350493 0.04887131
-0.090075165 -0.07713089 0.025792947 -0.0057661245 0.042894516 -0.053954557 0.100420885 -0.05634755
0.053040475 -0.054419685 -0.05853918 0.06938707 -0.070500605 0.016907686 -0.011960635 0.051909003
0.057575442 -0.07827965 -0.022328889 -0.015156087 -0.09576908 0.04269322 0.014197449 0.028377082
-0.05542284 0.017706297 -0.032640345 -0.019199265 0.045391664 0.045423184 -0.03589854 -0.1116891
-0.05632334 -0.09112437 0.0681313 0.054607566 0.02958272 0.02331571 0.060847245 -0.041539565
-0.03229019 0.08417692 -0.03352387 -0.03143417 0.056709178 -0.02515647 0.026740976 0.012855977
0.033338644 -0.08321988 -0.0067340345 -0.08705557 -0.033532795 0.02872031 -0.06446648 0.021980943
-0.04873506 -0.011850481 -0.09741369 -0.008774847 -0.030157583 0.06314851 0.014219041 -0.0645094
-0.06832417 -0.08833571 -0.0035565177 -0.08714676 0.04198211 -0.09877515 0.03615574 -0.02335407
0.10752142 -0.17562948 0.04896788 -0.0061845174 -0.00800149 -0.038628444 -0.0026275665 0.016808536
-0.05597026 -0.036887344 0.023187699 -0.03955186 -0.010494264 -0.059055846 -0.015628615 -0.06319317
-0.0019206727 -0.030927397 -0.02572752 -0.013386386 -0.04584134 -0.005721953 0.099503756 -0.00489582
0.015997292 -0.027415063 -0.036958613 -0.076981425 0.091278724 -0.004759633 0.053562697 0.07705054
0.014806301 0.09399246 -0.0017942128 -0.09517829 0.08915662 0.05862403 -0.074644566 0.021679787
0.06585227 0.04043511 -0.010687656 0.056954596 -0.067029685 -0.08283742 -0.039820228 -0.061488498
-0.001380775 0.0012049086 0.07633884 0.0009861878 -0.0047876867 -0.04569811 -0.034215327 0.025479222
-0.06921276 0.03752771 -0.06000025 -0.0954643 0.013319238 -0.12610039 -0.043215785 0.0147465095
0.069344416 0.025838966 -0.05805808 -0.07883049 0.012156953 -0.02685467 -0.05039034 0.07533195
-0.0046863407 -0.05245538 -0.003837958 -0.013946465 -0.026992375 0.04345256 -0.03997767 0.021170877
0.085729375 0.08250644 -0.040175255 -0.07079954 0.007645571 0.009365016 -0.059713583 0.026760414
0.06953408 0.05139283 -0.006915628 -0.064149596 -0.016712401 0.049897403 0.043780744 0.04581288
0.09560576 -0.06271187 -0.019038869 0.028632704 -0.022088965 0.011421798 -0.040010702 -0.062003773
-0.037353877 -0.037313003 0.029211937 -0.062156193 0.0018378416 0.030996725 -0.034181643 0.01242455

lstm.weight_hh_l0 f4 [512, 128]
00000000: 5559 8dbd cdc0 d53d 0127 a33d cde4 bf3d
00000010: f483 5d3c 8fa1 b4bc 96c1 993d 59ab 93bd
00000020: 9b0f a33d d7fd aa3d 6cea 893c 7d74 453d
00000030: fecc 25bc a62c 1abd d960 663d 7139 863d
00000040: 0c7b 53bd d12b 143d af1c 70bc 5187 65bd
00000050: 12dd a3bc b338 f73c 59d0 143d c216 353c
00000060: 2865 103d 2409 df3d d538 7abd 86ed c83c
00000070: 58b8 40bd 5db9 8d3c 1f34 a7bd 1fd1 e33d
00000080: ea7f a2bd 6329 723d b1e0 c0bd b825 8c3d
00000090: 8224 0e3d e7f5 d73d 680c 67bb 5de4 283d
000000a0: 7d05 bf3d 6d0d 723c 95ca 2b3b 741f e33b
000000b0: 361a ff3c 1587 f2bb 6623 f5bc 1191 31bd
000000c0: 58c8 b33d df65 6dbd f010 c13c a701 e1bd
000000d0: 9988 8cbc 2e4f 293d 242b 09bc 89bd bc3b
000000e0: c3c1 3abd 0e39 d13c a332 913c f449 18bd
000000f0: 3653 67bc 17f1 0fbe 9e1d 72bd 776e e5bc
00000100: 380f 86bd a6c8 113d 02fa 24bd 06bd c9bc
00000110: 4b59 ce3d 2732 db3c 3872 93bc e1e0 7bbd
00000120: 81b5 2ebd eb1e 60bc 89ce 813d b9e2 81bd
00000130: dce4 1e3c 0fdd 47bd 3ce1 d43c ec8d c1bd
00000140: 031d 2bbd d613 ca3c dd25 2dbd 5c9e 21bc
00000150: da8c 283b 410e 8cbd fc83 b63c 071d 8a3d
00000160: 23c6 753d dc8e 10bd 63c6 bdbd 0fd8 3a3d
00000170: 2119 a9bd 5867 b6bd c4ce 50bd 60fe 09bb
00000180: 58c1 1bbc a3af a13c 45e3 f9bc 31c6 513d
00000190: 8055 dd3d 507d 913d a63d bfbc 85ef 073c
000001a0: b215 93bd d621 debc 66e5 a53d 5994 8e3d
000001b0: f4f1 c33d 9804 88ba cb07 6c3c 75dd 95bd
000001c0: 54e5 be3d d2b0 50bd 665d 6d3d 59f4 283d
000001d0: 17e2 2e3b 6ade 823d d43a 933b 1fae 243c
000001e0: dd93 1fbd a59b 1b3d 1781 bdbc ed82 4c3d
000001f0: 756c 43bd 8c2f ae3c 9ec2 35bd e00c c63d
00000200: 4734 0ebd 1d12 683c 4a3f fcbc be38 1bbd
00000210: 4080 a13c db33 c33c f7c0 c4bc bf94 80bc
00000220: 6bc8 063d 5935 183c 7ac0 5fba ac56 2ebd
00000230: c5e1 bcbc 46a4 95bd e45a 863c 60b0 41bd
00000240: 331e 9dbd fa11 a5bd 89ff acbd b8a2 8c3d
00000250: 7a4e b23d 90d3 0fbd 822a a2bc bbd6 5d3d
00000260: 8910 73ba edd9 9a3d 83ea febc 7aa5 b4bc
00000270: 8971 383d 1c27 00bd bd1f eb3b ec7b 973d
00000280: 0004 163b 9e13 4fbc 54b8 1dbc 3f96 103b
00000290: b306 a9bc 0073 8c3d ce8c 72bd 2dde 563c
000002a0: 0df2 443d 024c ad3d 7f04 553d 0ace 083b
000002b0: 585a 813d d9e8 34bd 1f13 3ebd 47f8 09bd
000002c0: ddbe 35bd 9beb bbbd fd73 2b3d 3a96 903d
000002d0: 7aff cfbd d69b 763c 9721 c5bc c233 1c3b
000002e0: 88f8 38bd 39d7 653d 230a 5bbd 6681 8fbd
000002f0: 945f c43d c1d0 9f3d 1a53 95bd e62b 83bd
00000300: ad2d 8dbd 246c 0c3d 7c01 d8bc d0dc 8ebd
00000310: cd97 3dbd 0429 99bd 0326 3a3d fb27 733d
00000320: d59f 5cbd 9e91 093d 567c 323d ed52 b13a
00000330: 2d9e f2bc f8b3 453d 50cc fa3c 22c9 8e3d
00000340: bfee 963d 2622 cdbb 8f3b fcba 83d8 55bd
00000350: 5ba5 95bd efb2 c73c 058c 25bd 959f 4c3d
00000360: 03ff 6abd d56d aebd d79f cebc e937 9a3d
00000370: 11e0 e1bc fa84 f3bc 3216 893d e48b d73c
00000380: 313e 7b3d 6227 683c 971a c13d f08b 943d
00000390: 690b 2fbd 7d56 50bc 35d5 cf3c 8bab 9f3d
000003a0: 4f58 48bc 3ac7 19bb 4309 723d 0692 b73c
000003b0: d78d 5ebd e0ae b53c 4b34 8e3d 1770 23bd
000003c0: b280 41bc 24dc 833c 6127 d73d bee0 69bb
000003d0: 9e78 bcbb 299c 7ebd f15b 663d 63ab 183b
000003e0: 2a62 3ebd ca20 1dbd e575 2bbc b565 4f3d
000003f0: a8f3 aabd e19d 6abd c660 5cbd ed6e aabd
-0.06901804 0.104371645 0.07966424 0.09369812 0.01352023 -0.022049693 0.07507627 -0.07210416
0.07961961 0.08349197 0.016835414 0.048206795 -0.010119675 -0.037640236 0.056244705 0.06553925
-0.05163102 0.0361746 -0.014655276 -0.05603725 -0.020002875 0.030178403 0.03633151 0.011052789
0.03525272 0.10890415 -0.061089355 0.024527323 -0.047050804 0.017300302 -0.08164238 0.11123871
-0.07934554 0.0591215 -0.094178565 0.06843132 0.034702785 0.10544949 -0.0035255197 0.04123341
0.09327219 0.014773709 0.0026213278 0.0069312397 0.031140428 -0.007401357 -0.029924106 -0.043351237
0.08778447 -0.05795848 0.023567647 -0.10986643 -0.017154979 0.041335277 -0.008372102 0.005759899
-0.04559494 0.025539901 0.01772434 -0.037179902 -0.01411896 -0.14056812 -0.059110276 -0.028006775
-0.065458715 0.035591744 -0.04027749 -0.024626266 0.10075625 0.026757313 -0.0179988 -0.061493758
-0.042653564 -0.013679246 0.063382216 -0.06342072 0.009698119 -0.048794802 0.025986306 -0.094508976
-0.041775715 0.024667662 -0.042272437 -0.009864416 0.002571872 -0.06838656 0.022279732 0.06743818
0.06000341 -0.03529249 -0.09266355 0.045616206 -0.08256746 -0.0890643 -0.050978437 -0.002105616
-0.009506546 0.01973707 -0.030503878 0.0512144 0.108073235 0.071039796 -0.023344826 0.008296852
-0.071818724 -0.027115744 0.08100395 0.06961889 0.09567633 -0.0010377346 0.014406155 -0.0731763
0.093210846 -0.05094988 0.0579504 0.041248653 0.0026685053 0.06390078 0.004493097 0.010051279
-0.038959373 0.03799023 -0.023132844 0.049929548 -0.047710855 0.021262906 -0.044375055 0.096704245
-0.034717824 0.014164475 -0.030791897 -0.03789591 0.019714475 0.023828438 -0.024017794 -0.015695928
0.032905977 0.009290063 -0.0008535456 -0.042563125 -0.023056874 -0.07306723 0.016400762 -0.047287345
-0.07671776 -0.080600694 -0.08447177 0.06866974 0.087063745 -0.03511387 -0.01979566 0.05415986
-0.0009272178 0.07561097 -0.031117683 -0.022051562 0.04503015 -0.031287298 0.0071754144 0.07396683
0.0022890568 -0.012638954 -0.009626467 0.002206221 -0.020633077 0.06857872 -0.059216313 0.013114494
0.0480824 0.08461763 0.05200624 0.0020874762 0.0631606 -0.044167373 -0.046404954 -0.03368404
-0.044371475 -0.091757976 0.041858662 0.070599034 -0.1015615 0.015051803 -0.024063868 0.002383456
-0.045158893 0.056113455 -0.053476464 -0.07007103 0.095885426 0.078034885 -0.07291241 -0.06404857
-0.068934776 0.03428282 -0.026367895 -0.069757104 -0.046287347 -0.07478526 0.045446407 0.0593643
-0.053863365 0.033586137 0.043575607 0.0013528742 -0.02961644 0.048267335 0.030615002 0.06971957
0.07369756 -0.0062601743 -0.0019243824 -0.052208435 -0.0730693 0.024377314 -0.040416736 0.049956877
-0.057372104 -0.085170425 -0.025222702 0.07530195 -0.027572664 -0.029726494 0.066936865 0.026311822
0.061338607 0.014169546 0.094289 0.072532535 -0.04273549 -0.012715933 0.02537022 0.07796391
-0.012228086 -0.0023464696 0.059090864 0.022408497 -0.054334488 0.022178113 0.06943568 -0.03990182
-0.0118104685 0.016096182 0.10505558 -0.0035686935 -0.0057516834 -0.062160645 0.056240026 0.0023295514
-0.046480335 -0.03836135 -0.01046512 0.050634105 -0.08347255 -0.05727947 -0.053803228 -0.08321939

lstm.bias_ih_l0 f4 [512]
00000000: b619 af3c 3891 38bd 052f 94bd 07b0 22bd
00000010: d67c 803d 78c7 c33c ba29 8bbd 4913 9e3d
00000020: ea18 eabc 5ce9 91bd e048 5cbd e41b 49bd
00000030: 98ce 5b3d 2d16 c23d 8411 59bc 00e5 aa3a
00000040: cdce debc ef09 1f3d 0b01 87bd e783 66bc
00000050: 9cc7 1b3d 2d4d 45bd ed49 7e3c 21fd a7bd
00000060: aa69 d4bd d235 663d a182 52bd 77b5 823d
00000070: 9346 4d3d 536c 5cbc fa88 8cbd 0272 a3bd
00000080: 0841 6abd 364c 943c 75d8 2e3d af01 34bd
00000090: 14f9 56bd d19e de3c 0e2b 463d 420b 99bd
000000a0: 0dc9 833d a2b4 9f3d f189 0e3d acbf a73d
000000b0: deb0 f0bc 9a2c 3ebd bee7 a13d 05df bf3c
000000c0: d87b 8d3d 1dd6 83bd f210 89bd e1ae ba3c
000000d0: cdfe 5dbd 5fe7 6fbc 0163 9fbd 1de4 963d
000000e0: 4a5b 053d 587f d1bc 248f 67bc e1f0 ac3d
000000f0: d12c 84bd a9f8 8abd 1339 f13b f6cd 223c
00000100: c927 b03a ce81 6e3d 319b a9bc 7b50 3b3d
00000110: bf87 1bbd ee64 91bd dceb 6c3d e86b c6bc
00000120: b024 64bc f03a b43d 01a7 94bc e265 b0bc
00000130: a9fd 84bd 46e7 b83d cf4b 6bbd 7aac c2bb
00000140: 5990 32bc 4c39 aabb c771 af3d ed1e 58bd
00000150: 3686 7abd 7980 573d 78c7 3d3d d263 ec3c
00000160: bc10 cdbc 7de1 f6bc 516f a2bd c5c2 23bc
00000170: 73d2 863d 8df7 4ebb ec86 4c3d f097 0e3d
00000180: 58b3 8bbd 5c8f 9b3d 5480 dabc 9f78 cc3c
00000190: e17d ac3d 7b19 893d d4fc 843d 27b5 953d
000001a0: 15a9 f03c 72a2 30bd c4ae 77bd 35ad 793d
000001b0: f92c 34bd 5436 933d 9937 94bd 285f d03c
000001c0: acd3 a13d 18dd 333d d672 35bd 9763 7cbd
000001d0: d5c6 883d 4572 ae3d 750e 733d 6819 a33d
000001e0: 1324 293d 5dca 413a 3983 fa39 f712 983d
000001f0: dbc5 c8bb e2f7 813c 95a1 5ebd ffa0 cbbc
00000200: b3f5 8e3d fc43 6dbb d7e9 1dbc 946e 923d
00000210: 49aa e13c e864 903c 74e3 f43b 86ac 9ebc
00000220: 802c 683d 9ccb d4bc d62f 66bd cbfc 1d3d
00000230: d761 99bd 9933 eb3d 4611 20bc 5668 2fbd
00000240: f268 213d 6c47 afbc edde cf3c 74f5 95bd
00000250: a31e b2bd f262 b5bd 56a2 03bd a29c 383d
00000260: e54a b53b f620 5fbc d681 2e3d 4f71 82bd
00000270: 51e3 353c a879 cd3d 7ef0 0d3d 54d1 15bd
00000280: b642 9dbc 78cf 093d 91a3 8dbc 84c9 853d
00000290: dcaa 863d 37cc 903d 7ce5 553d 58df cabc
000002a0: d88f 27bd fca3 76bd 990e 9a3d 424e c1bc
000002b0: f45e 2a3d 18ac 313c 9191 4bbc 418d 513d
000002c0: 1fc5 87bd 16c9 91bd 3c0a 9abd 935f a3bd
000002d0: 94ad b23d 405e 6e3d 60d4 efbc 6dac 55bd
000002e0: 16dc 37bc 4dcf b0bd 19f2 8abd 3e8b aebd
000002f0: 8084 ae3c 6a09 7b3c 6191 80bd d8c6 eebc
00000300: f426 c83c 695b 973d 7be8 803d 00e1 85bd
00000310: bc2b a3bc 5b66 3cbc bd10 c4bd a084 423c
00000320: e950 ad3d 442a a43d 0e75 09bd 67ba a93d
00000330: d115 47bc ead6 6b3d 6c40 39bd 3f67 8c3c
00000340: 332c 583c 1875 9dbd 342a 6e3c 89a9 5a3d
00000350: 5d4e 8ebd 4454 90bd 176e 7c3d 3075 b93d
00000360: e93c b6bd f251 973d ac7a a3bd 6876 8cbd
00000370: dffc a13c b060 47bc dff2 ac3c 197a 0cbd
00000380: d4eb 3c3c a4d9 8b3d 9b23 4abd f2eb bd3b
00000390: 3e7a 84bd 6619 ae3c 7ed8 a03d 2209 95bd
000003a0: a9fd 4e3d beb2 823d a8a3 513b 281d 89bd
000003b0: c7ca 82bc aec9 66bd 5aad 91bd 6be3 80bd
000003c0: ccc8 0bbd fe94 a93c bb53 023d bae9 3cbc
000003d0: ee94 823d e0b1 1a3d 63a7 ff3c d339 91bd
000003e0: 4830 8bbc 5261 d6bc 81de ae3c 2a42 7c3d
000003f0: cc83 a0bd 4cfa 61bd 81e4 4d3c f83a 8c3d
0.021374565 -0.045060366 -0.07235531 -0.039718654 0.062738106 0.023898825 -0.06795068 0.07718522
-0.028576333 -0.07124588 -0.053780437 -0.049098864 0.05366382 0.09476886 -0.013248805 0.0013038218
-0.02719822 0.038827833 -0.06591996 -0.014069534 0.03803216 -0.048169304 0.015520555 -0.082025774
-0.10371716 0.05620367 -0.05139411 0.06382268 0.050116133 -0.013453561 -0.06862064 -0.0798073
-0.057190925 0.018102746 0.0426869 -0.043946918 -0.052483633 0.027175339 0.048380904 -0.074728504
0.06434832 0.07798125 0.03479952 0.081908554 -0.029381212 -0.046429254 0.079055294 0.023421774
0.06908387 -0.06437323 -0.06692685 0.022788467 -0.054198075 -0.0146425655 -0.07782555 0.07367728
0.032557763 -0.025573418 -0.0141332485 0.084443815 -0.064538606 -0.067857094 0.00736154 0.0099368
0.0013439591 0.05822926 -0.020703884 0.04573105 -0.037971254 -0.07099329 0.05784212 -0.024221376
-0.013924763 0.08800304 -0.01814604 -0.021532957 -0.06493694 0.09028487 -0.057445344 -0.005940971
-0.010898673 -0.0051948186 0.08566623 -0.052763868 -0.06116315 0.052612755 0.046332806 0.028856192
-0.025032394 -0.030136818 -0.07931388 -0.009995167 0.06583109 -0.0031580657 0.04993336 0.034812868
-0.068213165 0.07595703 -0.02667252 0.02495986 0.08422447 0.06694313 0.06493536 0.07309943
0.0293775 -0.04312367 -0.060469404 0.0609562 -0.0439882 0.07188097 -0.07237167 0.025435999
0.07901701 0.043912023 -0.04429897 -0.061618414 0.06678549 0.08517889 0.05933996 0.0796383
0.04129417 0.000739252 0.00047781484 0.07425492 -0.006127102 0.01586527 -0.054353315 -0.024857042
0.06980457 -0.0036203852 -0.009638271 0.07149997 0.027547019 0.01762624 0.0074734036 -0.019369375
0.056683064 -0.025975995 -0.056197964 0.03857116 -0.074893646 0.11484451 -0.009769743 -0.042824112
0.039406724 -0.021396361 0.025374854 -0.07322207 -0.0869725 -0.08856763 -0.032137237 0.04507125
0.0055326098 -0.013618698 0.04260429 -0.06369268 0.01110156 0.1003297 0.03465318 -0.036576584
-0.01919685 0.033645123 -0.017289909 0.06532577 0.065755576 0.07070201 0.052220806 -0.024764702
-0.040908664 -0.06021498 0.075223155 -0.023596887 0.04159446 0.010844253 -0.012424842 0.0511601
-0.06629395 -0.07118432 -0.07521483 -0.07977214 0.08724514 0.058195353 -0.029276073 -0.05216639
-0.011221906 -0.086332895 -0.06784458 -0.08522652 0.021303415 0.015322069 -0.06277729 -0.02914755
0.024432637 0.07390482 0.06294342 -0.06537056 -0.019918315 -0.011499013 -0.09573505 0.011872441
0.08462698 0.08015874 -0.033558898 0.082875066 -0.0121511975 0.057578005 -0.045227453 0.017139075
0.013194132 -0.076883495 0.014536429 0.053384338 -0.0694854 -0.070473224 0.061628427 0.09055555
-0.088983364 0.07388677 -0.07982382 -0.06858522 0.019773899 -0.012169048 0.021111904 -0.03429613
0.011530835 0.06828621 -0.049350362 0.005795949 -0.06468628 0.021252345 0.078537926 -0.072771326
0.050534878 0.063817486 0.0031988416 -0.06695014 -0.015965832 -0.05634468 -0.07113142 -0.062933765
-0.03412704 0.020700928 0.031818133 -0.011530334 0.06376062 0.03776729 0.031207746 -0.07091107
-0.016990796 -0.026169453 0.021346333 0.061586536 -0.07837638 -0.055170342 0.012566687 0.06847185

lstm.bias_hh_l0 f4 [512]
00000000: 7b35 73bd b1e0 a4bc c26f 8fbd 8a8e 333d
00000010: 9e40 88bd 8b24 aabd f884 b03b 4808 a83d
00000020: 80ae 14bd 111d e0bc cb75 853d 272f e43c
00000030: 8681 823c 763d 573d 2335 0c3d 94c1 12bc
00000040: 6fba da3c 0494 893d 2b14 94bd c4b9 8c3d
00000050: 5ac8 3b3d 4df3 69bd bceb 0b3d e3aa 8dbd
00000060: b557 c33c e9d2 3d3d 921c f2bc 8b76 02bd
00000070: 5a61 a13c b804 e9bc 61b9 b53d b170 5e3d
00000080: f6ac 8a3d 520e 8ebc 2a50 6fbc f293 a2bd
00000090: eee3 c43d 0754 c4bd 2bc4 5fbd 3ace 213c
000000a0: 046e 9e3c aa1f a4bd b532 53bc 357f 68bd
000000b0: 983e b9bd 3326 453c 34d2 963d 3047 e0bd
000000c0: 0dca 493d 6f71 153d ecad 893d dba6 a4bd
000000d0: 3ad7 f9bc e276 5c3c 8835 c43c c7d6 42bc
000000e0: 0441 923b d4a5 5b3c 4026 103c 66e6 223c
000000f0: 6d1a 423d ddbb fabc 1b1b 27bd debf 85bd
00000100: 0b2a 96bd 8970 3a3d 3fa5 26bc 73fd acbd
00000110: 3272 26bd 094d 8a3c d899 553d 847d 923d
00000120: c041 8e3d cb36 92bc 542f d0bc f6a2 21bd
00000130: 111b 17bd c3a8 1e3d ff06 143d 3406 813d
00000140: 74d1 993d 00b6 a8bd d383 033d c113 98bc
00000150: 2be1 9b3d 81b5 abbd fff8 7b3d 1fae 93bc
00000160: 982f 233d 9fe1 65bd 94d2 6dbc 68b5 a53d
00000170: 975e 3cbc f60d a63a 2b6c 6d3d c419 003d
00000180: ae3e a8bd 78f1 64bd 7bdb 593d 20b5 a13c
00000190: 34b2 0abd 5aff b1bc 43d8 0cbd 594f 2e3d
000001a0: 16d5 2a3c aa08 44bd 8110 7ebd 8d00 5bbd
000001b0: bf48 a4b8 5a90 2a3d 55d0 96bd 286f 80bd
000001c0: d1db 0f3b 5035 023a 4aad 4f3d 5a55 ad3d
000001d0: 16ac e23c d309 983c ad09 b1bc cb55 aebd
000001e0: 3c57 a13d 866b f23c 9983 423c 263e a8bd
000001f0: 0038 ec3c f48d a3bc 81d4 733d 049a 843c
00000200: 78ed c73c 2c19 53bc d0b1 84bd b2d3 34bc
00000210: c52c 12bc d461 31bd 3d7a 51bd 2fce 0fbd
00000220: 5bb8 4abd d072 a7ba 8673 dc3c aea5 35bd
00000230: f341 6c3d 3719 d9bc 39c6 573d a6f3 853d
00000240: d628 473d b4ca 1dbd 940f 8639 a1b5 63bc
00000250: fb02 23bd 30d1 223d 38af 93bd 35d7 32bd
00000260: e57c 633c bc59 453d 05cd 01bd afc3 c13c
00000270: 3998 4b3d 863b 683b 3f46 403d 1fdf 00bd
00000280: d580 b13b ee83 0abd e9b1 f03c 6ce9 9fbc
00000290: d105 a23d 9b3d 763d bd1f 193b f7ba 86bd
000002a0: 34e7 e03d 721a be3c ba91 0dbd 1349 08bd
000002b0: 8b1f 683d c51b 7ebd d296 a63b 5fad babd
000002c0: 71e1 133c 0274 a43d 4b1c c6bd fa78 8dbc
000002d0: 37fe 183c 2764 3a3c d39d 533d 9666 493d
000002e0: 1741 4fbd f00b 05bd 43e1 efbc 6a67 97bd
000002f0: a3cf 403d 68fd d23c 948c 9dbd 258b 823d
00000300: 72af afbc 7a21 7cbd a312 f33c 0797 84bd
00000310: 7060 9f3b 08ac 22bd b154 bbbd 93c2 cbbc
00000320: 2e00 0d3d 5311 a43c abcd 96bc 1824 6b3d
00000330: a901 703d 8c42 bb3d 5e01 b2bc 5dce 483d
00000340: 22c2 0c3d 5133 3dbd 250e 2f3d 43ba f8bb
00000350: 0afc d93c 9223 8bbd a39f 423d f370 d53d
00000360: 9336 a9bd afd7 233c 32fa c53c 2721 b13d
00000370: 2791 26bc 2143 8abd 834f 573d 98c7 e8bc
00000380: 825a 82bd 6068 ffbc 121a 623d 4c7b 86bd
00000390: 41c1 8e3c 1c03 6f3d 0850 8cbc 09ab 66bd
000003a0: 2886 b53b d056 073d 1f9f 103d a63d 8f39
000003b0: c769 233d 4765 0f3d 1202 e23b 0913 823d
000003c0: eb97 0dbd ab41 8cbd a433 113d 24b4 1f3d
000003d0: aab7 8f3d ee98 3fbc 95dc 953d 9009 f4bc
000003e0: de7d d5bb a232 99bd 863e f7bc 42d5 87bd
000003f0: 7555 e6bc fb63 5b3c f5c2 503d 49ca 81bc
-0.059377175 -0.020126672 -0.07003738 0.043837108 -0.0665295 -0.08307751 0.005386945 0.082047045
-0.03629923 -0.02735761 0.06516608 0.027854515 0.015930902 0.052548848 0.034230363 -0.008957285
0.026700227 0.06717685 -0.07230409 0.068713695 0.045845367 -0.057116795 0.03416036 -0.0691736
0.023845533 0.046343718 -0.029554639 -0.031851333 0.019699741 -0.028444633 0.08873249 0.05430669
0.06771271 -0.017340813 -0.014606515 -0.079383746 0.09613787 -0.095863394 -0.05463044 0.009875828
0.019339569 -0.08013852 -0.0128905075 -0.05676194 -0.09045142 0.012033033 0.07364312 -0.10951078
0.049264956 0.03648513 0.06722626 -0.08039638 -0.030498136 0.013456078 0.023951307 -0.011892027
0.004463317 0.013406236 0.008798182 0.009942627 0.047388483 -0.030607158 -0.040797334 -0.065307364
-0.07332238 0.04551748 -0.010171234 -0.08446779 -0.04063625 0.016882436 0.05214867 0.071528465
0.069461346 -0.017848393 -0.025413193 -0.039462052 -0.036891047 0.038735162 0.036139484 0.06300011
0.07510653 -0.08237839 0.03210814 -0.018564107 0.07611307 -0.083842285 0.061516758 -0.018027363
0.03984031 -0.056123372 -0.014515538 0.08091241 -0.011497161 0.0012668956 0.057964485 0.031274572
-0.0821508 -0.055894345 0.05318783 0.019739687 -0.033861354 -0.021728206 -0.03438593 0.04255614
0.01042678 -0.047859825 -0.062027458 -0.053467322 -7.8336794e-05 0.04164157 -0.07363955 -0.06271201
0.002195109 0.00049670506 0.05070237 0.08463545 0.027669948 0.018559372 -0.02161106 -0.085124575
0.07877967 0.029592287 0.011872196 -0.08214979 0.028835297 -0.01996515 0.05952883 0.016186722
0.024405226 -0.012884419 -0.064792275 -0.0110368 -0.008921807 -0.043306187 -0.051141966 -0.03510874
-0.04949222 -0.0012775306 0.026910555 -0.044347458 0.05768008 -0.026501281 0.052679274 0.06540613
0.04862293 -0.03852339 0.00025570078 -0.013898284 -0.039797764 0.039750278 -0.07211155 -0.04366227
0.013884758 0.04818128 -0.031689662 0.02365288 0.049705718 0.003543587 0.046941992 -0.031462785
0.0054169693 -0.033817224 0.02938171 -0.019520484 0.07911266 0.060117345 0.0023364865 -0.065786295
0.109815985 0.02320597 -0.034562804 -0.033272814 0.056670707 -0.0620382 0.005083897 -0.09115099
0.009025917 0.08029939 -0.09673365 -0.0172696 0.009337953 0.011376417 0.051664185 0.0491701
-0.050599184 -0.032482088 -0.029282218 -0.073927715 0.047073018 0.0257556 -0.07692829 0.06374196
-0.021445964 -0.061555363 0.029671973 -0.06474119 0.004863791 -0.039714843 -0.09147013 -0.024873054
0.034424 0.020027792 -0.018408617 0.05740747 0.058595333 0.09143552 -0.021729168 0.04902493
0.034364827 -0.046191517 0.0427381 -0.0075905635 0.02660944 -0.06793894 0.047515523 0.10421934
-0.08262362 0.010000153 0.024167154 0.086489014 -0.010166443 -0.06751085 0.052566063 -0.028415486
-0.06364919 -0.0311777 0.055200644 -0.06566486 0.017426135 0.058352575 -0.017128006 -0.056315456
0.0055396743 0.033041775 0.035308 0.00027321017 0.0398958 0.035008695 0.0068972195 0.06351287
-0.03456871 -0.06848463 0.03544964 0.038990155 0.07017453 -0.011694176 0.07317463 -0.029789716
-0.0065152487 -0.074803606 -0.03018118 -0.066324726 -0.028116921 0.013390536 0.050967176 -0.015843527

lstm.weight_ih_l1 f4 [512, 128]
00000000: ddb2 273d d149 353d 74e0 27bc 2280 853d
00000010: 566b 953d 5d17 5ebd 9f62 a5bc 9646 393d
00000020: 8dff 60bd 68cb 643d 4759 1fbc a516 9dbd
00000030: 86e5 563d 7243 5fbd 6e7e 453d 9a8d 9c3d
00000040: d550 8abd e8f0 c63c e168 b43d 517c 0cbd
00000050: ff04 b33b cf4a adbd 50e6 6fbd 7c1d a73d
00000060: dd91 593d c69d 663c 2f5c 083d f918 073c
00000070: a2d6 833d ce60 56bd bc3e da3c ceb9 33bd
00000080: 14d7 a33d 239a 883d 7dad 663d dd43 283d
00000090: 9c54 553d f6e6 a53b b937 07bd 4efe cabc
000000a0: deff 0fbd efd1 c43b e939 bc3d 58d2 573d
000000b0: 5190 733d bd02 2bbd f027 7f3d 8644 543d
000000c0: 0867 853d a9df 2f3d eae5 debc 2627 0f3d
000000d0: c20c 8c3b d4b9 1bbc 6398 f3bc ad10 98bd
000000e0: 32fd 6a3d dd67 41bc 1a53 a8bc 6eb9 ba3c
000000f0: b44b 7d3c d163 313d d066 943c 17a3 9dbd
00000100: 3c8f c33a 0330 a0bd 0948 303c 803e 45bc
00000110: 7ea1 5fbd 1439 0e3d 53b8 6dbd 66a9 ac3d
00000120: 2f0f 6bbd b4c8 94bc 9790 503d 92d8 4c3d
00000130: 10f5 81bd fe60 a2bb ab53 01bd 5d45 be3b
00000140: 7729 e1bc 3a39 983c 7e50 a43d 800e 8abd
00000150: 843a afbc 3c01 84bd 136c aabd a56b 5abd
00000160: e748 afbd 45cd b03d e0d6 11bd 7c10 a93d
00000170: 9d28 163d 246f 99bc 3330 29bd f7b1 b6bd
00000180: b444 013d d7bb 87bd 7670 283d a3ad a4bd
00000190: 2b75 f13a c8f6 4cbd 71ce 2fbc 4f6e d53c
000001a0: 2083 50bc 7ed1 3c3d d96c 3ebd 9da9 163d
000001b0: 7dd4 bdbd 474f a4bc 2de6 40bd 036e 073d
000001c0: 281d 9fbd 9005 983c 6f2b 6abb 035b 1d3d
000001d0: ad84 64bd cc74 863d 131c 473d 90f7 333d
000001e0: bb1a 793d 08b9 3ebd 3f6d 253c c633 4f3b
000001f0: ad8a a2bd 1797 fbbc a51f 51bd fa00 933d
00000200: d129 88bd 4821 9fbd 09eb 71bc e69b abbd
00000210: e485 953b 88a5 2a3d 7a71 a53d 9aec 203d
00000220: 151b 53bb a13d f1bc 93ca bf3c 3cb4 d8bc
00000230: a633 70bd c8fd 91bc 57f3 583c b5c3 71bd
00000240: 84d3 963d 0d75 4b3d 9635 b03b 7f19 6d3d
00000250: 0507 a23c 67d2 cabc 4122 a5bc e288 2bbd
00000260: a650 cd3c d5d0 843b 6714 ad3d a93e 843c
00000270: b1f9 83bd e2fb 63bd c9ec 6abc 6327 62bc
00000280: 40f3 3dbc fb85 7b3d 7787 873d 14e3 8d3c
00000290: bfc8 5b3c 75ae 63bd 14ed 2a3d 44b3 833c
000002a0: 88e5 663d 7c01 85bd 2a83 edbc a608 7e3c
000002b0: 3a7a 8d3d 4b38 78bd 869d 9c3d 95b3 afbb
000002c0: 70c0 ad3d c1a7 a6bd 1f44 083d e7ed ad3d
000002d0: 71fe a4bd 95a5 92bc 4237 90bd 9675 9c3d
000002e0: 0f5f b9bc 792c 99bd d3a3 623d 9ac5 8cbd
000002f0: f2a6 9d3d ebb9 963c e739 bebc 9768 bcbd
00000300: 9848 86bd ea56 783d bb09 d9bb 48cc 2d3d
00000310: d715 6b3d a981 873d d617 9abd d5b7 b53d
00000320: 752b 2b3d 10c3 6bbc 4e73 8cbd 2e11 3abd
00000330: 2981 573d 3198 8dbc b058 0c3c 6e01 773d
00000340: 1214 073d 83d3 e13b af4a a9bd 3f0c a9bd
00000350: 8c4f 9bbd d1a2 8bbc 35df f43c f615 4dbc
00000360: 1ee2 ab3d 279d 36bb 668e 46bc 45ff bdbc
00000370: 89c1 4f3d 995d bb3b 6ba7 2cbd ecd4 633c
00000380: e157 bd3d 05e9 f03b 1b30 cf3b cd7c 173d
00000390: 07fb 80bd 62b3 943d e1c2 823d 96d6 1ebd
000003a0: 3d79 a5bc 4f36 2cbb dbf0 c5bc d324 3cbd
000003b0: d7ff c03c d1cb c6bb 59ca 22bd 1342 e13c
000003c0: 3a1e 77bc a196 873d 6dd9 d33d dc36 89bc
000003d0: e60e 21bb f1cd a8bd af62 563d 7bab a2bd
000003e0: 1cd6 ecbb adae 88bd 7cf1 403d 7612 12bc
000003f0: 4af1 223c 36bd 3f3d 3676 a63c df0e e2bc
0.04094206 0.04425985 -0.010246385 0.0651858 0.07295863 -0.0542215 -0.020188628 0.04523333
-0.054931212 0.055858046 -0.009725875 -0.07670335 0.052464984 -0.05450768 0.048216276 0.07644196
-0.06753699 0.024284795 0.088090666 -0.034298245 0.005463242 -0.08461534 -0.058569252 0.081599206
0.05311762 0.014075702 0.033291038 0.0082457 0.06437422 -0.052338414 0.026641242 -0.04387837
0.08000007 0.06670024 0.056317795 0.041080344 0.052082643 0.005062933 -0.033012126 -0.024779465
-0.035156123 0.0060064713 0.09190733 0.052690834 0.059463803 -0.04175066 0.062293947 0.05182316
0.06513792 0.04293791 -0.027209241 0.034949444 0.004273982 -0.009504754 -0.02973575 -0.07425056
0.057370372 -0.011804548 -0.020547438 0.022793498 0.015459944 0.043308083 0.018115431 -0.076971225
0.0014920007 -0.078216575 0.010759362 -0.012038827 -0.05459737 0.034722403 -0.058037113 0.08430748
-0.057387527 -0.018162109 0.05091914 0.050011225 -0.0634557 -0.00495541 -0.031573933 0.0058066086
-0.027485592 0.018581975 0.08023165 -0.06741047 -0.021390207 -0.06445548 -0.08321395 -0.053325314
-0.08558827 0.08632902 -0.03560531 0.08255097 0.036659826 -0.018729754 -0.041305732 -0.08920663
0.03155966 -0.066276245 0.041122876 -0.08040931 0.001842176 -0.050040036 -0.010730372 0.026053576
-0.012726575 0.046098225 -0.046490524 0.03678285 -0.092690445 -0.020057334 -0.047094513 0.0330639
-0.07769233 0.01855734 -0.0035731455 0.038416874 -0.055790592 0.06565246 0.048610758 0.043937266
0.060816508 -0.04656318 0.010096847 0.0031616553 -0.079366066 -0.030711694 -0.05105557 0.07177921
-0.06648601 -0.0777002 -0.014765509 -0.08379345 0.00456308 0.04166177 0.080782846 0.03928814
-0.0032212187 -0.029448332 0.023412025 -0.02645313 -0.058643006 -0.017821208 0.0132416105 -0.05902453
0.07364562 0.049672175 0.0053774817 0.057885643 0.019778738 -0.02475853 -0.020157935 -0.04187859
0.02506287 0.004053215 0.08451157 0.01614316 -0.06444109 -0.055660136 -0.014338681 -0.013803336
-0.01159364 0.06140707 0.06617635 0.017320193 0.013414561 -0.055586297 0.04173 0.016076691
0.05637124 -0.06494424 -0.028993208 0.015504992 0.069080785 -0.06060056 0.07647233 -0.005361984
0.0848397 -0.08137465 0.03326809 0.08492642 -0.08056343 -0.017901221 -0.070417896 0.07639615
-0.022628335 -0.074791856 0.055332016 -0.06873627 0.07697858 0.0183992 -0.02322097 -0.091996364
-0.06556815 0.060629763 -0.0066234744 0.042431146 0.057393875 0.066165276 -0.075240776 0.08872954
0.04178949 -0.014389768 -0.0685793 -0.04542654 0.05261341 -0.017284485 0.008566067 0.060304098
0.032978125 0.0068916692 -0.08266198 -0.08254289 -0.07583532 -0.01704541 0.02989159 -0.012517443
0.08392738 -0.0027864666 -0.012118911 -0.023193011 0.05072168 0.005717945 -0.04215185 0.013905745
0.09245277 0.007351997 0.0063228733 0.036984254 -0.0629788 0.07260777 0.063848265 -0.038778864
-0.020199412 -0.0026277488 -0.0241627 -0.045933556 0.023559494 -0.0060667773 -0.039743755 0.027497327
-0.01508289 0.06620527 0.10344205 -0.016749792 -0.002457553 -0.08242405 0.052340206 -0.079428636
-0.0072276723 -0.06673942 0.047105297 -0.008915534 0.009945223 0.046811305 0.02032004 -0.027594982

lstm.weight_hh_l1 f4 [512, 128]
00000000: 1b8d 88bd a5d5 33bc 02ae 333c 4ac2 6cbb
00000010: 370a 513d fb6e 9cbd 4fd9 bd3c 8a63 dcbc
00000020: 2ddb 75bd 294e cfbb b623 9abc 3a00 a53d
00000030: b9c8 41bc 2c6d c13c 302b c53b 4ffe 273d
00000040: 926c 803d f676 8fbd e695 07bd b193 aebd
00000050: 394f 683d d0e5 30bd 4ce9 763d e07c 0b3d
00000060: 5f01 9c3d a92b 8a3d 8b40 103d 5178 393d
00000070: e2f7 293d 1be3 0bbd 1b33 8fbd 495a 05bb
00000080: e4fc b63c 5e98 19bd f611 bb3d ecde aabd
00000090: cf7b 5bbd 3cf1 9bbd bce2 87bc e301 79bd
000000a0: 0f42 953c 90d3 383d f515 9a3d 312a 26bb
000000b0: 6705 a33c 040d 413d f2e7 103d 778e a33d
000000c0: 01b9 9e3d 610c a3bd fed3 8fbc 4fe5 843d
000000d0: 3bec bdbc bcd7 01bd 0aa0 8e3d 8f49 25bd
000000e0: f2e4 533d e4ad 093d 48d2 a53d 541e c43b
000000f0: fa31 4d3d 6d9f 223c 46c9 8fbd 107e 8d3d
00000100: 18fa 923c 314a 2abd 2237 543d 5e87 90bd
00000110: 8bda e5bc b478 93bd ddb8 8f3d 88fc c13d
00000120: ff5e 073d 0594 433d 481e 59bd 9a59 1dbb
00000130: 2552 90bc 1815 b23d b51a 003d e5ca 783d
00000140: e8f2 81bc 17a0 923d 67b6 75bd 63e4 6cbd
00000150: c208 67bd c0d3 96bd e3f9 a03c ec0b 8b3d
00000160: eb2d 96bc c2df 81bd 139b 8a3d ce75 bd3c
00000170: f903 6fbc 0ff3 50bd f73d bbbc f04e fd3c
00000180: 3414 f9bb 625c 9b3d cf72 2fbc 167e 303d
00000190: 187a a0bd 3789 90bd 1b2c da3b 41ae a1bd
000001a0: cff8 a03d b9ab 713d dc20 023c ecca 9fbd
000001b0: fd38 923c 4b19 46bd 7d6a 883d 5160 ad3b
000001c0: f1cb a5bd 0c41 a33c e09f 68bd 76ea 803c
000001d0: 2361 fb3c 01f0 29bd 7f00 19bc 2001 b73d
000001e0: 0a65 273d 95a5 5dbd be65 90bd 4811 283d
000001f0: 833d 8f3d 5a2c 9bbd 583d 2a3d caba 173d
00000200: 0145 a4bd 4ba0 b73c c1db 2cbc 54bc 643d
00000210: a5e3 ec3b 6936 9b3d 44e5 1dbd 902f 6ebd
00000220: 5efe 043d 78f6 aebb d021 183d e138 2f3d
00000230: 5ccd 72bd 3545 e3bc 7310 18bd cf67 c5bc
00000240: 29dc 633c 185e 8c3b 2b82 353d 0c9a dfbc
00000250: 3efa a4bd 1a51 c3bb c4e5 90bd a171 813d
00000260: f770 00bd 2598 ca38 6118 013d 1f70 333d
00000270: 9ddc a5bc c14d a23d c229 89bc dfee bcbb
00000280: d07e 0bbd 958b 9b3c 80c2 9fbd ac53 ce3b
00000290: cb1e d9bb 051e 103c 0cb9 093d 5614 bebd
000002a0: 9ca5 92bd b95f 3ebd 98db ad3d 0176 b33c
000002b0: 395f 563d b1dd 42bc 8f34 ddbc 222f 8dbd
000002c0: cb09 4ebd 1331 a73d 8fc9 86bd aad8 a33d
000002d0: 79f9 153d c4f3 423d 466c 5e3c e771 57bd
000002e0: 83b8 383c 092a 54bd 73e6 9c3d c0c7 ddba
000002f0: d277 873d ca4d 523d 850f 063d 9c26 903d
00000300: 847d e2bc 7e75 93bc ed09 933d 2713 21bd
00000310: e79f 663d c850 9e3d c2c3 653d de81 fe3b
00000320: 30f5 8cbd 4406 87bd bf9f 3bbd 14cd 883d
00000330: 4199 84bc 0082 a23d 68bf 8d3d 30e5 c13c
00000340: 8bd6 d93c f3ca 18bc 1a4a 8ebc fa47 22bb
00000350: 8309 a93d 4421 033d 0d9a a5bd 777b 92bd
00000360: f577 4fbd a85a fdbc 965d 723c f1d5 8d3d
00000370: ea01 efbc ded8 573d a4b0 a6bd 31a6 a93d
00000380: e9a1 5e3d 6835 b0bc efff 21bd 283d 58bd
00000390: 8dab e63c 032c a2bd 7501 13ba 57fb b3bd
000003a0: e54a b4bd e2f3 46bd 57c3 42bb 4bf7 86bd
000003b0: 20f5 3bbd a610 593d 3264 11bd 97b3 91bd
000003c0: e986 7f3d f347 603c 2d4b 18bd c88b 19bd
000003d0: f9da 903c 33c3 48bd aad8 42bd 887e 7c3c
000003e0: 5a4b b4bd 9ef1 19bd c4eb 9039 8920 e3bc
000003f0: 6585 9fbd 5fd9 adbc d7ff a23c 0b22 20bd
-0.06667539 -0.01097623 0.01096678 -0.0036126547 0.051035132 -0.07638355 0.02317491 -0.026902933
-0.060023475 -0.006326456 -0.018815856 0.08056684 -0.011827641 0.023611628 0.0060171112 0.041014012
0.06270708 -0.07005112 -0.03310194 -0.08524264 0.056716178 -0.043187916 0.060281083 0.034054637
0.07617449 0.06746609 0.035217803 0.04528076 0.041496165 -0.03415213 -0.069921695 -0.0020348004
0.022337385 -0.037498824 0.09134285 -0.083433 -0.05358487 -0.07614371 -0.016587608 -0.060792815
0.018219976 0.045123637 0.07523719 -0.0025354738 0.019900037 0.047131553 0.03537745 0.079861574
0.077501304 -0.079613455 -0.01755714 0.0648905 -0.023183933 -0.03169988 0.06964119 -0.040353354
0.05173201 0.0336131 0.080967486 0.0059850607 0.05009649 0.009925705 -0.07020812 0.0690881
0.01794152 -0.04157466 0.05181039 -0.07057069 -0.028058311 -0.07200757 0.07017682 0.09471995
0.03304958 0.047748584 -0.053007394 -0.0024009706 -0.017617295 0.086954296 0.03127547 0.06074037
-0.015862897 0.07159441 -0.059988406 -0.057834994 -0.056404836 -0.07364607 0.019650405 0.06789383
-0.018332442 -0.063415065 0.06767859 0.023127463 -0.0145883495 -0.05101305 -0.022856696 0.03092143
-0.0076012854 0.0758598 -0.010708525 0.043088995 -0.078357875 -0.07057422 0.00665809 -0.078945644
0.078599565 0.059001658 0.007942405 -0.07802376 0.01784944 -0.048363965 0.06660936 0.005291023
-0.08095539 0.019928478 -0.056793094 0.0157368 0.030685967 -0.04148865 -0.009338497 0.089357615
0.040867843 -0.05411299 -0.07050656 0.041032106 0.06994154 -0.07576819 0.04156241 0.03704337
-0.08020974 0.0224153 -0.01055044 0.055843666 0.007229286 0.07578737 -0.038548723 -0.058150828
0.032469146 -0.00533944 0.03714162 0.042778853 -0.059277877 -0.027742961 -0.037125062 -0.024097351
0.013907471 0.004283678 0.04431359 -0.027295135 -0.080555424 -0.005960596 -0.07075074 0.06320501
-0.03135773 9.66045e-05 0.03151739 0.0438081 -0.020246798 0.07924987 -0.016743544 -0.0057657803
-0.034056485 0.018987456 -0.0780077 0.0062965956 -0.0066259853 0.00879622 0.03362374 -0.092812225
-0.07160494 -0.046478007 0.0848915 0.021906855 0.052336905 -0.011893676 -0.027002601 -0.068937555
-0.050302308 0.08163657 -0.06581413 0.0800031 0.03661487 0.047595754 0.013575619 -0.05259886
0.01127446 -0.0517979 0.07661142 -0.0016920492 0.06614651 0.051343717 0.032729644 0.07038614
-0.027647741 -0.01800036 0.071796276 -0.039324906 0.05630484 0.077302516 0.056094892 0.007766946
-0.06882703 -0.06592992 -0.045806643 0.066797405 -0.016186358 0.07934952 0.069212735 0.023668855
0.02659156 -0.009325731 -0.017369319 -0.002476214 0.08253767 0.032014146 -0.080860235 -0.07152455
-0.05065151 -0.030927017 0.01479282 0.06925572 -0.029175717 0.052697055 -0.0813916 0.082836516
0.05435363 -0.021509841 -0.039550718 -0.0527927 0.028157974 -0.07918551 -0.0005607822 -0.08788174
-0.088033475 -0.04857243 -0.0029718482 -0.06590136 -0.045888066 0.052994393 -0.035495944 -0.07114332
0.06238452 0.013689029 -0.03718107 -0.03748682 0.01768254 -0.04901428 -0.04756991 0.015411027
-0.08803435 -0.03758394 0.0002764148 -0.027725475 -0.07789115 -0.021221815 0.019897385 -0.039094966

lstm.bias_ih_l1 f4 [512]
00000000: 0f09 253d db8e 42bd 308d 9fbb 2b95 1a3c
00000010: b7b3 3b3c 10d8 2ebd be4a 563d 2a4e 8c3d
00000020: a928 8bbc 27f7 1e3d a4a5 c1bd 5641 38bd
00000030: 67e8 103d c444 773d 2cd1 69bc 6cd6 33bb
00000040: 0f1b 3dbd 92d0 f8bc 9566 85bd 46a7 143c
00000050: 921b d4bd 9827 4bbd 6f79 ebbc 9c4f a6bd
00000060: c7e0 adbd 5494 a03d d7ed 8e3d 0f29 1d3d
00000070: 0bd3 793b 117b 1a3d 2a12 85bd 5d41 27bd
00000080: b57c f7bc 7fb7 3d3c 9c05 833c 1db3 a23d
00000090: 6499 7b3d d359 87bc 0214 353b 7a5f a4bd
000000a0: 4b21 d43c 0437 aebd db81 8cbc 5c96 80bd
000000b0: cf2c af3d d24f c8bd b66a 993d 6394 8ebd
000000c0: 5873 5c3d bdd6 623d 46b2 843d cfc4 19bd
000000d0: 3eb4 8fbc afca 57bd e907 293c 37ab 80bd
000000e0: ffad 8d3d 2fc8 3c3c 128b 86bd 5a9a 7abd
000000f0: 8819 80bb e050 d03c d96d cc3c d6b7 a73d
00000100: 5156 b33d 65db 8bbd 0e29 a5bd 53d2 13bd
00000110: cc47 fa3c abf3 203d 26e2 1d3d 683b c53c
00000120: 6896 3a3d b446 86bd ce89 afbd 4bb2 10bc
00000130: 995b 61bd e38f c0bc f1d8 833c 11c5 2f3a
00000140: 6d73 b2bd 9a6c 833d 37ac 2cbd ef3e 3dbc
00000150: d7aa 3f3d d39d 4a3d 92a8 97bd b53a a7bc
00000160: 7868 abbc 315d 2b3d 64a0 aa3d 25d4 4d3d
00000170: a70a c8bd 257c 29bd 6613 cfbb 4501 72bc
00000180: d4a8 28bd a45d c8bd 035e 52bd f660 a03d
00000190: 3005 96bd 6023 c83c 59db 62bb 1ed3 983c
000001a0: 93cf 673d 8f70 fbbc aa08 c8ba 72d6 9ebd
000001b0: bfb2 7f3d afae ac3c 178f 423d 766e 973d
000001c0: 1bc9 75bd 8b04 563d 11b4 303d 95e4 a5b9
000001d0: d05e 013d cfce 793d 3195 7f3c 8bc8 f8bb
000001e0: a0bf 083d a508 573d fa08 bbbd 57d7 f2bc
000001f0: 7aff 4abd a94e 953d 4518 01bd 85ef 2abd
00000200: 2d28 813c 9e59 26bd a150 1cbd 0a84 933c
00000210: 1069 393d 6ed5 9ebd d6d3 bebb b3d0 33bc
00000220: df9e f3bb 5552 aebd 3040 4b3d d9a9 973d
00000230: 1481 f63c db68 c43b 6a37 8d3c e677 2f39
00000240: abe0 8e3d 685d 33bd 39ab 8e3d 22f4 a63d
00000250: af84 42bd 2b97 1b3d a153 09bd 6123 a3bd
00000260: 9614 803d 8273 003d 57ea 35bd e7cc 9abd
00000270: 42e0 71bd 1bf9 5dbc 2c51 a8bc 1a81 493c
00000280: 6fcf e33a d283 7dbc a638 b1bd ac54 34bd
00000290: 8d88 e3bc 9fe2 943d a095 8abd ca1e f13c
000002a0: c1da a03d 8ec9 d83c 3ef6 0ebb 2d07 1c3d
000002b0: 1f6e b73a 9bff 333d aaed b83d a067 a2bd
000002c0: a3cc 06bc b6ce 273d a985 6b3d 03f7 7a3d
000002d0: e9a3 7ebd 06f9 fe3c 2deb a7bc 5216 013d
000002e0: a925 0bbd dd78 ab3d 8541 90bd d75b 68bd
000002f0: ccd5 013c e8d3 11bd b32e 4dbd 3b71 963d
00000300: afa4 8dbd b20b 933c 00c8 f9bc 7596 463d
00000310: 3434 493d 175b c9bc 50a8 9cbc 4a9f 363c
00000320: 10fa adbc ddfe 64bc 3133 833d 1de5 c73c
00000330: 639e 38bd d24b 75bd 2da7 9dbd 562b a8bd
00000340: ccaf 393c 909f edbc 9f1e 0cbc c94f 1cbc
00000350: ae89 6b3d ab5b 97bb dcff a9bd c969 f2bc
00000360: d46b 293d d78f 6cbd c80e cabc 8c6f 1f3d
00000370: 8685 cfbc 2dd7 a63d f30f 65bc e1d2 c4bd
00000380: a169 903c 2d15 cbbd 7917 d0bc bc45 a4bc
00000390: 0e04 e1bd 6c2b 5fbd c3a8 093d 86ff 0d3c
000003a0: 0ff8 1e3d fc9a 043d 18b1 94bd caec 193c
000003b0: 6fe6 83bd 6eec 0bbd f363 b0bc 2383 f13c
000003c0: 57fd 953c ea39 6c3c 156b 9cbd 1976 9d3d
000003d0: f9d4 a3bd f86d 1c3c 723c f0bc fa04 d5bd
000003e0: 8cbe 473c 39a0 7b3d abee 98bd f525 85bd
000003f0: bbd3 e5bc 91c8 fa3c fc9c 6e3d 082f 87bd
0.040291842 -0.04749952 -0.004869126 0.0094349785 0.011456422 -0.042686522 0.052317373 0.06850846
-0.016987162 0.03880992 -0.094554216 -0.044984184 0.035377886 0.060368314 -0.014271062 -0.0027441038
-0.046168383 -0.030372892 -0.065137066 0.009073084 -0.10356821 -0.049598306 -0.028744427 -0.08120653
-0.084901385 0.07840791 0.06978958 0.038369235 0.0038120176 0.03771502 -0.06497605 -0.04083382
-0.030210832 0.011579393 0.015993886 0.079443194 0.06142558 -0.016522324 0.0027630334 -0.08026023
0.025894782 -0.08506587 -0.017151764 -0.06278679 0.085534684 -0.097808495 0.074910566 -0.06961896
0.053820938 0.05538057 0.064793155 -0.037541207 -0.017542 -0.05268353 0.010316827 -0.06282657
0.06917953 0.011522337 -0.06569494 -0.061182357 -0.0039092936 0.02542919 0.024954723 0.08189361
0.08756698 -0.068289556 -0.08064471 -0.036089253 0.030551814 0.03929488 0.03854575 0.024076179
0.045553595 -0.06556454 -0.08571206 -0.008831571 -0.055018995 -0.02350611 0.016094657 0.00067050854
-0.08713422 0.064171985 -0.042156424 -0.011550649 0.046793785 0.04946692 -0.07405199 -0.020413736
-0.020923838 0.04183692 0.08331373 0.050251145 -0.09767657 -0.04137816 -0.006319451 -0.0147708105
-0.041176632 -0.097834855 -0.051359188 0.07830994 -0.07325208 0.02443093 -0.0034615605 0.018655356
0.056594443 -0.03069332 -0.0015261371 -0.07755746 0.062426325 0.02107939 0.047499742 0.073941156
-0.060006242 0.052250426 0.043140475 -0.0003164156 0.03158456 0.060988244 0.015599535 -0.007592266
0.033385873 0.05249848 -0.091325715 -0.029643698 -0.049560048 0.07290394 -0.031517286 -0.04173233
0.015766228 -0.04061281 -0.03816283 0.018007297 0.04526621 -0.07755552 -0.0058235927 -0.010975051
-0.0074347104 -0.08511797 0.04962176 0.07405443 0.030090846 0.005993945 0.017238338 0.00016733966
0.06976446 -0.04379025 0.06966252 0.081520334 -0.04748982 0.037985962 -0.03352702 -0.07965732
0.062539265 0.031360157 -0.044412937 -0.07558613 -0.05905176 -0.013548161 -0.020546518 0.012298847
0.0017380546 -0.015473323 -0.08653383 -0.044026062 -0.027775073 0.07269787 -0.0676682 0.029433627
0.07854224 0.026463296 -0.0021814252 0.03809278 0.0013994611 0.043944936 0.09029706 -0.07929921
-0.0082275 0.04096862 0.057500515 0.061270725 -0.062168036 0.031124603 -0.020497883 0.031515427
-0.033971462 0.08372662 -0.07043747 -0.05672821 0.007924508 -0.03560248 -0.050093364 0.07345816
-0.069161765 0.017949913 -0.030490875 0.04848333 0.04912205 -0.024579568 -0.019123226 0.011146376
-0.021237403 -0.01397678 0.06406248 0.024401242 -0.045072924 -0.05988676 -0.07697902 -0.08211391
0.011333417 -0.02900675 -0.0085522225 -0.009540507 0.05750435 -0.004619082 -0.083007544 -0.029591458
0.0413626 -0.057754364 -0.024665251 0.03892474 -0.025332224 0.0814651 -0.013980853 -0.096105345
0.017628493 -0.09916148 -0.025401818 -0.020052783 -0.109871015 -0.05448477 0.03360821 0.008666879
0.038810786 0.032374367 -0.072603405 0.009394834 -0.06440436 -0.034161024 -0.021532035 0.029481476
0.018309278 0.014418105 -0.07637612 0.07688541 -0.07999606 0.009547703 -0.029325698 -0.1040134
0.012191426 0.061432097 -0.07467397 -0.0650138 -0.028055063 0.030613216 0.05825518 -0.066007674
