models/signals_lstm.pt (torch, 855061 bytes, 9 tensors)

lstm.weight_ih_l0 f4 [512, 27]
-0.07681511 0.0011553043 0.069301225 -0.013778139 0.031552535 0.07550541 0.020023216 -0.07852983
-0.0919373 0.02915572 0.022809451 0.07595055 0.046602007 0.027955705 -0.02061573 -0.05600565
0.042500798 0.019760298 0.090910695 0.061847508 -0.023204299 -0.06065092 -0.046059396 0.06579858
0.060122635 -0.07851367 -0.08299158 -0.06956669 -0.050180484 0.061133966 -0.09137093 -0.055466764
-0.0021375588 0.035292704 -0.064162344 -0.063306354 -0.0025296968 -0.005095832 -0.0059005646 -0.008942011
0.035307143 0.07609363 0.036327865 0.027694808 0.013295139 -0.089143805 -0.01601387 0.0045801834
0.00452433 -0.016528197 0.08564587 0.0862815 0.015074998 0.05108172 -0.061504267 -0.072964594
0.00021499544 -0.0112569 -0.046582118 -0.072303616 -0.02760079 0.08370583 0.062018193 -0.0652327
0.044745345 -0.06547478 0.04084348 -0.061050355 -0.030163001 0.07413952 4.7002744e-05 -0.07596477
-0.005284617 0.03142949 -0.08456364 0.041516248 -0.016399141 0.023482587 0.02258141 -0.085516796
0.07503511 0.043221634 -0.086420156 0.057336662 -0.06411408 0.023769753 0.0716008 -0.058099058
0.050866 0.01884605 -0.0058594085 0.04805124 -0.090039566 0.05650179 -0.015714943 -0.03170026
-0.014529165 -0.0133363595 -0.0539365 0.046163294 -0.0020956984 -0.06429345 0.050175242 0.052902058
-0.07005771 0.006948952 -0.0866095 0.039125178 0.007369192 -0.056966987 0.051014826 -0.065583125
-0.05558105 0.0027401072 0.037278816 -0.06992915 0.012401706 -0.011157332 -0.087579705 0.023934873
-0.07984362 -0.08136166 0.07095857 0.061646443 -0.09084456 -0.032665934 -0.047602374 -0.0027397305
0.078306034 0.04795638 -0.07044232 -0.060965646 0.04024859 -0.03410344 -0.06944374 0.06405173
0.072858505 -0.050931677 -0.06910239 0.04482728 -0.06605387 0.038069215 0.031243322 -0.042414322
0.008942735 -0.094091766 0.055800524 -0.019953256 -0.023291895 0.04843779 -0.05304086 0.060127143
-0.010561339 0.057991926 -0.019397521 0.05593318 -0.055572905 -0.04564213 -0.055694953 0.035961047
0.051958967 -0.036895625 -0.09658789 0.061554916 0.008472734 -0.013367218 0.06458279 0.09521092
0.082972996 -0.043047808 -0.041729033 0.05595034 -0.0055316705 0.018853648 0.124018244 0.06290476
-0.0038914988 0.0035219144 0.07091051 -0.0023731822 0.05715566 0.076935545 -0.04302317 0.021113154
-0.027482506 -0.087467134 -0.09661819 0.06803318 0.054976746 0.055183712 -0.0611506 0.056162674
0.03366472 0.05785243 -0.059735652 0.08423363 0.013750892 -0.0647535 0.08570048 0.09231996
-0.05970606 0.08190439 -0.019286342 -0.07471276 0.07652968 0.079925224 0.0646267 -0.025544124
0.003947441 -0.04135883 -0.04521343 0.10344501 -0.078191124 -0.0771791 -0.005327943 -0.05783553
-0.05383261 -0.015610854 0.0071610822 -0.029407015 0.0062249354 0.01981129 0.008940405 -0.033791076
-0.02470053 0.05399556 -0.086515725 0.05435292 -0.07758509 -0.053714298 0.12246508 -0.09610416
-0.08847191 0.06968884 0.04302468 -0.012853607 -0.042403024 -0.016554955 -0.08548186 -0.105339535
-0.042264856 -0.0074567827 -0.054284573 0.037529327 -0.0015035534 -0.012066458 -0.070290945 0.045931984
0.0115004 -0.08221449 0.05948338 0.079324864 0.008415555 0.08429901 0.014208965 -0.05623533
00000000: 3e51 9dbd 946d 973a cded 8d3d b4bd 61bc
00000010: 3b3d 013d 95a2 9a3d ba07 a43c 3fd4 a0bd
00000020: a049 bcbd fad7 ee3c e3da ba3c f68b 9b3d
00000030: bfe1 3e3d 5d03 e53c 52e2 a8bc 2e66 65bd
00000040: 5115 2e3d 59e0 a13c 632f ba3d d053 7d3d
00000050: f116 bebc 196d 78bd c7a8 3cbd 68c1 863d
00000060: 2743 763d c6cb a0bd 7df7 a9bd fb78 8ebd
00000070: 0d8a 4dbd 9c67 7a3d af20 bbbd 1e31 63bd
00000080: 4916 0cbb 158f 103d 8c67 83bd c3a6 81bd
00000090: 45c9 25bb f0fa a6bb 8659 c1bb 8381 12bc
000000a0: 399e 103d fad6 9b3d 87cc 143d 39e0 e23c
000000b0: dbd3 593c 0791 b6bd 852f 83bc 5d15 963b
000000c0: d540 943b 2466 87bc 1a67 af3d 5bb4 b03d
000000d0: 20fd 763c 113b 513d e6eb 7bbd 766e 95bd
000000e0: 6670 6139 dc6e 38bc e4cc 3ebd eb13 94bd
000000f0: 0d1b e2bc f66d ab3d ca06 7e3d b998 85bd
00000100: e546 373d a417 86bd 7e4b 273d f00f 7abd
00000110: 6618 f7bc 76d6 973d d024 4538 6b93 9bbd
00000120: 952a adbb 35bc 003d b42f adbd f10c 2a3d
00000130: 7e57 86bc 8e5e c03c a6fc b83c 6e23 afbd
00000140: 02ac 993d 2b09 313d 0dfd b0bd d9d9 6a3d
00000150: 3e4e 83bd c9b8 c23c 71a3 923d 47f9 6dbd
00000160: de58 503d 0863 9a3c 4800 c0bb 61d1 443d
00000170: aa66 b8bd 6c6e 673d a0bc 80bc 22d8 01bd
00000180: bc0b 6ebc bf80 5abc 85ec 5cbd b915 3d3d
00000190: fc57 09bb 49ac 83bd 8e84 4d3d d4af 583d
000001a0: 6b7a 8fbd 09b4 e33b 5260 b1bd b941 203d
000001b0: 4379 f13b 3756 69bd ecf4 503d 7250 86bd
000001c0: f5a8 63bd 5f93 333b acb1 183d 0437 8fbd
000001d0: 8630 4b3c 3ecd 36bc fd5c b3bd 1113 c43c
000001e0: 0d85 a3bd f1a0 a6bd ba52 913d fb80 7c3d
000001f0: b60c babd b7cc 05bd b5fa 42bd 0d8d 33bb
00000200: ea5e a03d e96d 443d 1044 90bd 1db7 79bd
00000210: b5db 243d 0cb0 0bbd 8538 8ebd 8e2d 833d
00000220: d736 953d bc9d 50bd 8e85 8dbd cf9c 373d
00000230: 4047 87bd 77ee 1b3d fff1 ff3c a4ba 2dbd
00000240: 8d84 123c 2fb3 c0bd 178f 643d 0375 a3bc
00000250: a5ce bebc b466 463d 5f41 59bd e147 763d
00000260: 7709 2dbc f188 6d3d 8de7 9ebc 311a 653d
00000270: 6aa0 63bd 3ef3 3abd 6420 64bd e44b 133d
00000280: edd2 543d de1f 17bd dfcf c5bd 0221 7c3d
00000290: 39d1 0a3c 2d02 5bbc fb43 843d f1fd c23d
000002a0: bfed a93d e652 30bd 10ec 2abd 2f2c 653d
000002b0: 0443 b5bb f772 9a3c 47fd fd3d 36d4 803d
000002c0: 8408 7fbb ebcf 663b 8839 913d 6487 1bbb
000002d0: 0e1c 6a3d 6290 9d3d 1039 30bd 7ef5 ac3c
000002e0: fe22 e1bc f821 b3bd c2df c5bd fb54 8b3d
000002f0: 4c2f 613d 5108 623d 0d79 7abd d50a 663d
00000300: 04e4 093d abf6 6c3d 5fad 74bd ae82 ac3d
00000310: 6c4b 613c 7c9d 84bd bc83 af3d 3f12 bd3d
00000320: 578e 74bd 7dbd a73d 64fe 9dbc 0103 99bd
00000330: 98bb 9c3d d6af a33d 015b 843d e941 d1bc
00000340: 8959 813b e067 29bd b831 39bd fada d33d
00000350: ab22 a0bd 1310 9ebd 0696 aebb f3e4 6cbd
00000360: 957f 5cbd abc4 7fbc 83a7 ea3b fbe6 f0bc
00000370: 8bfa cb3b 494b a23c c77a 123c 8368 0abd
00000380: c458 cabc 732a 5d3d 282f b1bd 2ba1 5e3d
00000390: efe4 9ebd 8603 5cbd f9ce fa3d 42d2 c4bd
000003a0: c330 b5bd 06b9 8e3d a63a 303d ef97 52bc
000003b0: cbae 2dbd 429e 87bc 1d11 afbd 41bc d7bd
000003c0: ea1d 2dbd 0758 f4bb 8059 5ebd 5ab8 193d
000003d0: e112 c5ba 65b2 45bc b3f4 8fbd 2d23 3c3d
000003e0: 2c6c 3c3c 1260 a8bd d8a4 733d 1375 a23d
000003f0: 65e1 093c f6a4 ac3d b8cc 683c 0457 66bd

lstm.weight_hh_l0 f4 [512, 128]
0.008506367 0.06610537 -0.06439612 0.09227048 0.049168292 0.012392488 -0.029848628 0.044924155
-0.057695758 0.048106473 -0.097434856 0.07044475 -0.023044582 -0.036045145 0.014789129 0.07139562
-0.06600782 0.039324284 -0.006399149 0.02656832 0.06472499 0.013590036 -0.05958726 -0.056926716
-0.092034474 -0.019606385 0.032759707 -0.07571081 -0.011462388 -0.015341822 0.004755009 -0.060626402
-0.08275499 -0.029316448 0.034118384 -0.08218528 0.005101263 -0.024508193 0.09686715 -0.019879026
-0.06660705 -0.012955857 0.012574633 -0.037752237 0.044089284 -0.06640912 0.071129404 0.068044506
0.037622295 -0.065365486 -0.029484442 -0.073673405 -0.07320931 -0.0814548 0.043017942 0.060408905
-0.07764629 -0.050721005 0.080951326 0.12068322 0.045431893 0.07505186 -0.040536948 -0.044273004
-0.08030321 -0.033555746 0.0272451 -0.0682387 -0.07254967 -0.028470688 0.09584408 -0.07096786
0.086747184 0.03961753 0.05496087 0.071109615 -0.07916956 -0.028095463 0.08222852 -0.07991093
0.050909292 0.029418292 0.04408819 -0.01807644 -0.017619977 0.073891304 0.027630467 0.014906317
-0.033598494 -0.05283709 -0.072345205 0.02349217 0.02668856 -0.06168009 -0.043707497 0.06494422
0.019305235 -0.08809919 0.041702464 -0.07320749 -0.024271917 0.05772381 -0.005444259 0.013194715
-0.06376232 -0.04069549 -0.059521474 -0.05581037 -0.051547337 0.06386889 0.09389857 -0.061782364
0.022869512 0.073327295 -0.0068590418 -0.034474876 0.01711971 0.032762196 -0.021829452 -0.008000815
0.020800155 -0.008176053 -0.052685395 -0.0033080452 -0.02185527 0.046641126 -0.05968953 0.079855196
0.0544983 -0.0126381805 -0.0645512 0.07822111 0.02355336 -0.081374936 -0.0016500002 -0.07709889
0.0104049295 -0.06737881 0.019997496 0.07371725 0.01451031 0.0124686025 0.0025851321 0.07533693
-0.0407309 0.08423959 0.0014699458 0.02230595 0.08196646 -0.043276355 -0.06125324 0.11734481
0.015916511 -0.035081886 -0.024461351 0.07391934 0.063814245 0.06957821 -0.034040365 0.029270785
-0.08862194 -0.0711368 -0.030958192 -0.045480218 0.0051609995 -0.020784296 -0.053567387 0.035864823
0.08234994 0.07590747 -0.045576666 0.08150803 -0.059197567 0.015245983 -0.021575738 -0.021835512
0.0135434205 -0.0382371 0.025864644 0.005028667 0.03690411 -0.07256106 -0.0065304986 -0.06241976
-0.061140478 -0.015899695 0.08911616 0.087228715 -0.028395154 -0.009365002 -0.0610676 -0.00667686
-0.015164927 -0.03227211 -0.017098475 0.05656539 -0.043100104 0.072197594 -0.028031364 -0.05639548
0.057544816 0.08168937 -0.019048553 0.020038797 -0.09790684 -0.007950654 -0.02782552 0.050953664
0.078677215 -0.06665187 -0.036513675 0.09062776 -0.08082605 0.021241065 0.07156026 -0.023009345
0.019242974 0.021840772 -0.017179424 0.012502123 -0.04471144 0.044647444 -0.006194509 -0.03739755
0.009559748 0.072598904 -0.023037883 0.019848805 -0.077212654 -0.10552438 0.020877745 -0.03075641
-0.03109038 -0.06355696 -0.040179316 0.09295234 0.002793797 -0.045770146 0.021181706 -0.06927194
-0.07409356 -0.00589612 0.04143276 0.067765094 -0.041591007 -0.068769194 -0.042344153 -0.01683897
-0.0034489818 0.047270596 0.047977977 0.028139247 0.009504813 0.051175803 0.09667845 -0.0018113877
00000000: 4a5e 0b3c 4162 873d 1de2 83bd 4ef8 bc3d
00000010: b164 493d dd09 4b3c 1c85 f4bc 6402 383d
00000020: 6352 6cbd 4b0b 453d ed8b c7bd 5645 903d
00000030: fec7 bcbc 13a4 13bd 1a4e 723c de37 923d
00000040: 1c2f 87bd 8012 213d f4af d1bb cea5 d93c
00000050: 898e 843d bea8 5e3c c511 74bd fd2b 69bd
00000060: 927c bcbd 929d a0bc 0b2f 063d 450e 9bbd
00000070: bdcc 3bbc 445c 7bbc e8cf 9b3b 6453 78bd
00000080: 737b a9bd 0c29 f0bc b8bf 0b3d c250 a8bd
00000090: 7f28 a73b 68c5 c8bc 4962 c63d 57d9 a2bc
000000a0: 4769 88bd ce44 54bc d505 4e3c 17a2 1abd
000000b0: f796 343d 8101 88bd 4bac 913d eb5a 8b3d
000000c0: d619 1a3d 57de 85bd 5b89 f1bc 15e2 96bd
000000d0: c3ee 95bd c6d1 a6bd 9533 303d 546f 773d
000000e0: 0505 9fbd d4c0 4fbd cfc9 a53d c428 f73d
000000f0: cb16 3a3d cab4 993d 120a 26bd 9c57 35bd
00000100: 0276 a4bd c071 09bd 1e31 df3c bbc0 8bbd
00000110: ec94 94bd 5c3b e9bc e749 c43d 9957 91bd
00000120: 82a8 b13d fe45 223d a61e 613d eba1 913d
00000130: a623 a2bd 7528 e6bc 6d67 a83d 57a8 a3bd
00000140: 4386 503d a1fe f03c d195 343d 0b15 94bc
00000150: c557 90bc 5354 973d 4a59 e23c a039 743c
00000160: 939e 09bd b46b 58bd b929 94bd a772 c03c
00000170: f8a1 da3c 43a4 7cbd a206 33bd 7a01 853d
00000180: 0326 9e3c 596d b4bd 34d0 2a3d cfed 95bd
00000190: e6d5 c6bc cd6f 6c3d c165 b2bb a52e 583c
000001a0: d295 82bd 50b0 26bd cacc 73bd 6a99 64bd
000001b0: 4d23 53bd b1cd 823d e54d c03d 810f 7dbd
000001c0: d858 bb3c 9f2c 963d d0c1 e0bb 8735 0dbd
000001d0: a23e 8c3c a731 063d aed3 b2bc da15 03bc
000001e0: 1665 aa3c daf4 05bc a4cc 57bd cacb 58bb
000001f0: d309 b3bc c40a 3f3d 027d 74bd 1f8b a33d
00000200: 9c39 5f3d 5f10 4fbc 6b33 84bd 6432 a03d
00000210: faf2 c03c e7a7 a6bd d244 d8ba 06e6 9dbd
00000220: 7079 2a3c e7fd 89bd cad1 a33c 12f9 963d
00000230: a7bc 6d3c 1c49 4c3c 526b 293b 404a 9a3d
00000240: 72d5 26bd ce85 ac3d 32ab c03a f8ba b63c
00000250: 08de a73d 8c42 31bd ade4 7abd 7a52 f03d
00000260: 5863 823c 06b2 0fbd 2c63 c8bc 0663 973d
00000270: 0bb1 823d 057f 8e3d e96d 0bbd 49c9 ef3c
00000280: 6b7f b5bd 2cb0 91bd 099c fdbc 7749 3abd
00000290: 9a1d a93b d443 aabc 7a69 5bbd fee6 123d
000002a0: 16a7 a83d 6075 9b3d 99ae 3abd afed a63d
000002b0: 2679 72bd 4aca 793c 9abf b0bc 63e0 b2bc
000002c0: 39e5 5d3c 819e 1cbd 17e2 d33c 84c7 a43b
000002d0: c428 173d e59a 94bd cbfd d5bb ddab 7fbd
000002e0: 706e 7abd 1440 82bc 8982 b63d f8a4 b23d
000002f0: f49c e8bc aa6f 19bc 0522 7abd 90c9 dabb
00000300: 5076 78bc c32f 04bd 1a12 8cbc 1cb1 673d
00000310: bc89 30bd 55dc 933d 08a2 e5bc f2fe 66bd
00000320: 1db4 6b3d c24c a73d b60b 9cbc 6728 a43c
00000330: 6283 c8bd 7643 02bc 58f2 e3bc cab4 503d
00000340: 8521 a13d c780 88bd 5d8f 15bd 0c9b b93d
00000350: 2188 a5bd be01 ae3c 308e 923d 187e bcbc
00000360: 71a3 9d3c 6beb b23c ddbb 8cbc b4d5 4c3c
00000370: 5823 37bd 3de0 363d 4ffb cabb 2c2e 19bd
00000380: 7da0 1c3c bcae 943d f1b9 bcbc f699 a23c
00000390: ab21 9ebd 2b1d d8bd ce07 ab3c def4 fbbc
000003a0: 41b1 febc 272a 82bd 1193 24bd cc5d be3d
000003b0: 2318 373b 7a79 3bbd 4285 ad3c 72de 8dbd
000003c0: 5dbe 97bd 3d34 c1bb 66b5 293d 6dc8 8a3d
000003d0: 555b 2abd ddd6 8cbd 1071 2dbd e1f1 89bc
000003e0: 5008 62bb d09e 413d 8e84 443d 4784 e63c
000003f0: 13ba 1b3c b89d 513d 5aff c53d 166c edba

lstm.bias_ih_l0 f4 [512]
-0.08315107 -0.047763173 0.03083603 0.023406014 0.08305097 0.07630577 -0.0032549705 -0.035092425
0.06445007 0.07022182 0.011544824 -0.039132208 -0.01830165 0.07681583 -0.08322407 -0.04263902
0.040860523 -0.0691379 0.08404549 -0.05990285 -0.04826339 0.0329197 -0.021918122 0.069145
0.008554576 -0.04041422 0.06770179 0.054726675 0.06378823 0.030838901 0.056739263 0.022363877
0.053104844 0.030688768 0.06280076 0.05711835 0.0062946305 0.043344803 0.04105802 -0.059255242
-0.002537162 0.06160076 0.065163106 -0.056603234 -0.010825819 -0.014247385 -0.07829133 0.08069277
0.046050336 0.01424606 0.020091504 -0.08459758 0.0137972245 -0.037656486 0.001378496 -0.077687345
-0.051625434 -0.011156437 0.028642664 -0.051374406 -0.06157774 -0.015049571 0.009147148 0.07259045
-0.023860984 -0.0125468625 -0.010955647 0.049585488 -0.050157964 0.07257988 0.0072483183 -0.06865888
-0.08323321 -0.018525232 -0.06919514 -0.025593787 0.017627474 -0.012829978 -0.010219153 0.057700764
-0.074112244 0.06229869 0.10396904 0.08477155 0.042786427 -0.042589113 0.025858033 -0.082789645
-0.04296054 -0.022601744 0.038806766 -0.009689959 0.05099183 0.015926376 0.010374753 0.04567796
0.017430337 0.045848925 0.008479774 0.08014827 0.028597923 0.056792997 -0.0089154225 0.025567008
-0.083221436 0.03328306 -0.040552218 0.05339209 0.03331347 -0.08354133 0.031651568 -0.020455075
-0.08620202 -0.022157269 -0.03738137 0.052095883 0.013813458 -0.06865176 0.02322883 0.0035868962
0.04489939 0.017158052 -0.007861844 0.039614912 0.08379682 -0.079783574 0.055693425 -0.07800518
-0.08040424 -0.038685646 0.06229809 -0.08057763 0.037444133 0.06006772 -0.027975084 0.083160125
0.020282576 0.014203141 0.089207366 0.06644458 0.033023078 0.07859568 -0.07689462 0.06958038
0.045245085 -0.045419347 0.012984884 -0.056461435 -0.08769015 -0.0015758845 0.0664823 -0.075129
-0.04851317 -0.0819908 -0.035034288 0.074651204 -0.0007689793 -0.062312275 -0.051131535 0.0076019857
0.008793798 -0.029073302 -0.07550963 -0.03687933 0.07864006 -0.0006032661 0.09606856 -0.078278795
0.0039136265 0.027020408 0.018580621 0.011543695 -0.059767954 0.058737043 -0.014692266 0.008592862
0.0177409 0.059264388 -0.026837105 -0.04869906 0.053752724 0.06400629 0.05123792 0.030396806
0.00777268 0.09423301 0.07441199 -0.035662394 0.049681116 0.031211432 0.029529177 -0.05614097
-0.0755366 0.014854661 0.018335436 0.004967369 -0.023711363 0.052017365 -0.05736637 0.07698858
-0.01146591 -0.023019906 -0.0025483717 -0.03754409 -0.035114586 0.007880218 -0.077324584 0.03222535
0.019329699 -0.009442174 -0.025012001 -0.06691151 -0.073056616 -0.040799364 -0.075950556 0.03725994
-0.06572174 0.0143064875 -0.09146866 0.018887749 0.06737169 -0.04872024 0.0071069566 0.08890576
0.07962217 0.025710389 0.045879874 0.020912249 -0.05742029 0.087769896 -0.04427238 0.06296273
-0.017626269 -0.07291799 -0.046918586 -0.05603973 0.015893074 0.052794717 0.071954444 -0.028029295
0.04489068 0.025735969 0.06500919 -0.0652841 0.039239418 -0.093459606 -0.014205102 0.013362218
-0.046359237 0.06531195 -0.082222216 -0.007240451 0.0820939 -0.01953305 -0.07416806 1.0729371e-05
00000000: 1c4b aabd 51a3 43bd d89b fc3c f8bd bf3c
00000010: a116 aa3d 3346 9c3d 5851 55bb 13bd 0fbd
00000020: 66fe 833d 75d0 8f3d 8026 3d3c 1849 20bd
00000030: 58ed 95bc 9e51 9d3d 6271 aabd 41a6 2ebd
00000040: 5d5d 273d 2c98 8dbd 0b20 ac3d b15c 75bd
00000050: d5af 45bd cfd6 063d a28d b3bc e59b 8d3d
00000060: 7e28 0c3c 6289 25bd 3ca7 8a3d 1429 603d
00000070: 67a3 823d dda1 fc3c 6e67 683d 7334 b73c
00000080: 7784 593d 0367 fb3c af9d 803d eef4 693d
00000090: 3043 ce3b 528a 313d 742c 283d a0b5 72bd
000000a0: 8446 26bb 1451 7c3d 3c74 853d cbd8 67bd
000000b0: c75e 31bc dd6d 69bc 3457 a0bd 4042 a53d
000000c0: 479f 3c3d 4e68 693c f096 a43c 7f41 adbd
000000d0: c10d 623c b03d 1abd a6ae b43a 8b1a 9fbd
000000e0: 3175 53bd 7dc9 36bc 05a4 ea3c f86d 52bd
000000f0: f138 7cbd 7a92 76bc ebdd 153c 4daa 943d
00000100: 1c78 c3bc 5b91 4dbc 507f 33bc 271a 4b3d
00000110: 7072 4dbd c3a4 943d 4d83 ed3b 079d 8cbd
00000120: 2c76 aabd 3ac2 97bc 2eb6 8dbd 10aa d1bc
00000130: 7e67 903c d434 52bc 3c6e 27bc a357 6c3d
00000140: 29c8 97bd e92c 7f3d b8ed d43d b59c ad3d
00000150: d240 2f3d ec71 2ebd 3ad4 d33c 9e8d a9bd
00000160: 64f7 2fbd 4b27 b9bc d8f3 1e3d a2c2 1ebc
00000170: cfdc 503d 0878 823c defa 293c d018 3b3d
00000180: 11ca 8e3c 15cc 3b3d c0ee 0a3c c724 a43d
00000190: 3146 ea3c c69f 683d fe11 12bc e771 d13c
000001a0: 0070 aabd d153 083d 151a 26bd aab1 5a3d
000001b0: b573 083d b817 abbd 13a5 013d 6791 a7bc
000001c0: af8a b0bd 2983 b5bc 351d 19bd 7e62 553d
000001d0: d851 623c 4b99 8cbd 634a be3c 2212 6b3b
000001e0: 6ce8 373d 0b8f 8c3c f7ce 00bc 3f43 223d
000001f0: ab9d ab3d 9265 a3bd ca1e 643d 2ec1 9fbd
00000200: faaa a4bd d774 1ebd 482c 7f3d e205 a5bd
00000210: 055f 193d 9209 763d 012c e5bc db4f aa3d
00000220: a527 a63c 4bb4 683c 5ab2 b63d 1914 883d
00000230: 3543 073d c6f6 a03d ed7a 9dbd 2980 8e3d
00000240: e952 393d a309 3abd 8dbe 543c 1b44 67bd
00000250: e596 b3bd e98d ceba df27 883d 3cdd 99bd
00000260: bfb5 46bd cbea a7bd 1d80 0fbd bbe2 983d
00000270: 5495 49ba 283b 7fbd 4d6f 51bd 141a f93b
00000280: dd13 103c 222b eebc cba4 9abd c80e 17bd
00000290: 0a0e a13d 8124 1eba 98bf c43d a250 a0bd
000002a0: e13d 803b e759 dd3c 6336 983c c421 3d3c
000002b0: 3ecf 74bd 4196 703d d4b7 70bc 13c9 0c3c
000002c0: 5d55 913c 37bf 723d 7dd9 dbbc aa78 47bd
000002d0: d12b 5c3d bb15 833d dade 513d b902 f93c
000002e0: f7b1 fe3b 3dfd c03d 5065 983d bb12 12bd
000002f0: 6d7e 4b3d 1eaf ff3c 2ce7 f13c 13f4 65bd
00000300: efb2 9abd f760 733c 3234 963c 50c5 a23b
00000310: 553e c2bc 2910 553d 00f9 6abd 30ac 9d3d
00000320: 83db 3bbc 3e94 bcbc 9502 27bb d5c7 19bd
00000330: 50d4 0fbd 081c 013c 5a5c 9ebd bbfe 033d
00000340: 5159 9e3c 59b3 1abc f8e5 ccbc e708 89bd
00000350: b59e 95bd 3c1d 27bd f78b 9bbd e19d 183d
00000360: 1f99 86bd c265 6a3c ec53 bbbd 7bba 9a3c
00000370: 2bfa 893d e08e 47bd 79e1 e83b 3914 b63d
00000380: f310 a33d 989e d23c 89ec 3b3d 2a50 ab3c
00000390: 8a31 6bbd b4c0 b33d f556 35bd 9bf2 803d
000003a0: f764 90bc 0756 95bd b42d 40bd ea89 65bd
000003b0: 3132 823c 463f 583d da5c 933d b19d e5bc
000003c0: 4adf 373d 3dd4 d23c 8a23 853d acb3 85bd
000003d0: 83b9 203d c067 bfbd 84bc 68bc 34ed 5a3c
000003e0: 2fe3 3dbd 46c2 853d 1f64 a8bd 4e41 edbb
000003f0: d920 a83d c603 a0bc 6de5 97bd 4c02 3437

lstm.bias_hh_l0 f4 [512]
0.08593675 0.02179789 -0.05598091 -0.00022294564 0.051582273 -0.018347405 -0.055764865 -0.07836281
-0.062273532 -0.07452961 0.06256833 0.01250757 0.0582579 -0.07122755 -0.06963857 0.0828934
0.07787263 -0.015294815 -0.056143735 0.08636321 0.040848058 0.08648235 -0.07808763 -0.05090956
-0.07908685 -0.07109089 0.08860531 0.005586021 -0.041573323 -0.090650655 -0.07976514 -0.0046535167
-0.011104245 -0.020838901 0.05216954 0.004575272 0.04323201 0.016392639 -0.061445337 0.06479069
0.0878739 0.055132758 -0.05262215 0.0751049 0.023407277 -0.08245165 -0.062227335 0.031492226
0.015006053 -0.0051279333 -0.08217381 0.016736303 0.03418133 0.014112193 0.03569522 0.058879163
-0.015999114 0.05426719 -0.017982922 -0.061740745 0.01591812 0.021337185 0.040337935 -0.07287762
0.07890534 -0.04510256 -0.03125201 -0.030564854 0.025337579 -0.049554005 -0.06565052 -0.08523514
-0.027543865 0.07051559 0.0791064 0.11024977 -0.059091553 0.03645129 -0.06515175 -0.07682725
-0.0460049 -0.002756803 0.09410674 0.048101056 -0.06119435 -0.05239065 0.04918756 0.06745154
-0.041503474 0.001761331 0.07034355 -0.0375304 -0.04025122 -0.019346146 -0.017364016 0.0042810645
-0.0035166263 -0.06460896 0.043805674 -0.058563966 -0.0772217 0.07115605 -0.08435413 0.06817925
-0.07605659 -0.03256378 0.07570229 0.0494513 -0.040061317 0.05972463 -0.034940545 0.05204835
0.008120134 -0.06417044 0.05266601 -0.032419685 0.03904224 0.035959177 -0.086776465 0.041635778
0.043231733 0.062011782 -0.086458005 -0.028957251 0.088757925 -0.0021373723 0.017115938 0.00011407799
0.036239825 0.0027987522 0.02636389 -0.054439813 -0.032734994 0.06387856 -0.07230334 0.027088407
-0.06050082 -0.08748885 0.079074726 -0.03342077 0.029281747 -0.03398899 0.016710173 0.06816176
-0.04155632 0.013136676 -0.04250289 0.011538324 -0.03776828 -0.07633867 0.05804923 -0.06166074
0.0036412857 0.08116196 0.0630548 0.03869679 0.06126279 -0.05548446 0.019334616 -0.016492296
0.058985468 0.0073111826 0.070080966 0.066883676 -0.024815068 0.060169626 -0.06541285 -0.0009880003
0.056320578 -0.014993834 0.0021123004 -0.021234298 0.076081805 -0.010000781 0.018151175 -0.018949622
0.025264444 -0.08360071 -0.023663273 -0.026703825 -0.06593188 -0.054609425 -0.0016403103 -0.061640598
0.04469508 0.013721984 0.0016863177 0.11869321 0.08797133 -0.07201389 0.0024849637 -0.013117889
0.051001117 0.040378626 -0.019820107 -0.003986511 0.03013267 -0.046403836 -0.0014796293 -0.03066113
-0.04142659 0.019305257 0.04242629 -0.039983712 -0.059474606 -0.04163783 0.07325001 0.031483427
-0.025843702 0.0424356 -0.043553255 0.046051748 -0.092661455 0.008761697 -0.049664352 -0.097828016
-0.09179576 -0.0034818286 -0.08953053 0.0041930964 0.04652538 0.012488414 0.015442204 0.025183536
0.011393211 0.032959025 0.07655378 -0.06631551 -0.0447299 0.04339505 -0.042474315 -0.055347156
-0.0018069282 0.06241124 -0.03781168 -0.03568025 0.04186668 -0.02440483 -0.01505791 -0.031757936
0.054497015 -0.09490662 -0.06796999 -0.031359196 0.072752655 -0.04935141 0.04593544 -0.055135906
0.07147966 -0.073374435 -0.050861128 0.025655806 -0.06339783 -0.0057972125 -0.006374185 -0.020343196
00000000: 9bff af3d 7d91 b23c 3d4c 65bd 84c6 69b9
00000010: ef47 533d 4c4d 96bc b369 64bd ae7c a0bd
00000020: 8812 7fbd fba2 98bd d323 803d 8dec 4c3c
00000030: d69f 6e3d c0df 91bd ab9e 8ebd 04c4 a93d
00000040: af7b 9f3d 1b97 7abc f9f6 65bd 32df b03d
00000050: 4b50 273d a91d b13d 68ec 9fbd 8b86 50bd
00000060: 49f8 a1bd 1a98 91bd b376 b53d f10a b73b
00000070: ca48 2abd 0da7 b9bd e85b a3bd 877c 98bb
00000080: 94ee 35bc 58b6 aabc baaf 553d 2aec 953b
00000090: 0c14 313d db49 863c 1bae 7bbd fbb0 843d
000000a0: 3bf7 b33d e3d2 613d 538a 57bd 99d0 993d
000000b0: 9ec0 bf3c 69dc a8bd 17e2 7ebd fefd 003d
000000c0: f3db 753c 3908 a8bb be4a a8bd 921a 893c
000000d0: b901 0c3d d436 673c 2735 123d 472b 713d
000000e0: 9310 83bc 4647 5e3d ec50 93bc dde3 7cbd
000000f0: b866 823c 52cb ae3c 6439 253d dd40 95bd
00000100: 1f99 a13d 76bd 38bd 1c02 00bd 2563 fabc
00000110: c190 cf3c 24f9 4abd c873 86bd c38f aebd
00000120: aca3 e1bc 7a6a 903d 8902 a23d a2ca e13d
00000130: fc09 72bd f34d 153d 486e 85bd 9b57 9dbd
00000140: a26f 3cbd 7bab 34bb 09bb c03d 9d05 453d
00000150: eda6 7abd 9497 56bd e578 493d 0824 8a3d
00000160: 8cff 29bd 76dc e63a 4710 903d 7ab9 19bd
00000170: 77de 24bd cf7b 9ebc fb3e 8ebc 2c48 8c3b
00000180: 3377 66bb b451 84bd 946d 333d c5e0 6fbd
00000190: 6926 9ebd 43ba 913d dcc1 acbd 90a1 8b3d
000001a0: 8fc3 9bbd 9961 05bd cd09 9b3d 728d 4a3d
000001b0: 5617 24bd d0a1 743d d11d 0fbd a730 553d
000001c0: 4f0a 053c cb6b 83bd 50b8 573d 81ca 04bd
000001d0: c1ea 1f3d ee49 133d dcb7 b1bd 478a 2a3d
000001e0: c213 313d 1100 7e3d e510 b1bd c237 edbc
000001f0: b7c6 b53d 2813 0cbb b936 8c3c 283d ef38
00000200: 3670 143d 456b 373b 16f9 d73c 48fc 5ebd
00000210: 2115 06bd c3d2 823d c613 94bd 82e8 dd3c
00000220: b5cf 77bd 5b2d b3bd eef1 a13d 38e4 08bd
00000230: 46e0 ef3c 0a38 0bbd c6e3 883c 6598 8b3d
00000240: f636 2abd 363b 573c 8317 2ebd 3d0b 3d3c
00000250: e9b2 1abd 7357 9cbd 08c5 6d3d f98f 7cbd
00000260: a3a2 6e3b 3e38 a63d e022 813d 8680 1e3d
00000270: b1ee 7a3d ac43 63bd a163 9e3c da1a 87bc
00000280: bf9a 713d a592 ef3b 9c86 8f3d 4ffa 883d
00000290: f848 cbbc 6d74 763d 2cf7 85bd ca7f 81ba
000002a0: 68b0 663d b3a8 75bc 856e 0a3b 8df3 adbc
000002b0: c7d0 9b3d 51da 23bc c6b1 943c 3d3c 9bbc
000002c0: 61f7 ce3c d936 abbd 7bd9 c1bc fbc1 dabc
000002d0: 4b07 87bd 22ae 5fbd aeff d6ba da7a 7cbd
000002e0: 3012 373d 2cd2 603c 6f07 dd3a 6d15 f33d
000002f0: 502a b43d 057c 93bd c6da 223b 6aec 56bc
00000300: 8ce6 503d 0f64 253d c75d a2bc 47a1 82bb
00000310: cad8 f63c f311 3ebd 1ff0 c1ba 0d2d fbbc
00000320: eeae 29bd 0f26 9e3c 31c7 2d3d f6c5 23bd
00000330: a59b 73bd 6e8c 2abd 1a04 963d c4f4 003d
00000340: 2cb6 d3bc f4d0 2d3d e664 32bd c2a0 3c3d
00000350: 4ac5 bdbd 398d 0f3c d96c 4bbd 0e5a c8bd
00000360: 6aff bbbd 642f 64bb c85b b7bd 3e66 893b
00000370: 6691 3e3d 349c 4c3c 4c01 7d3c b44d ce3c
00000380: 97aa 3a3c 0b00 073d 3ac8 9c3d 6dd0 87bd
00000390: b336 37bd 02bf 313d 8cf9 2dbd b3b3 62bd
000003a0: 73d6 ecba eea2 7f3d 6ce0 1abd 7425 12bd
000003b0: 657c 2b3d a3ec c7bc 74b5 76bc 9c14 02bd
000003c0: 4338 5f3d 675e c2bd da33 8bbd 8072 00bd
000003d0: 58ff 943d b424 4abd cd26 3c3d 30d6 61bd
000003e0: ee63 923d 5645 96bd c253 50bd 202c d23c
000003f0: b9d6 81bd 8bf6 bdbb 8ade d0bb c6a6 a6bc

lstm.weight_ih_l1 f4 [512, 128]
-0.020956425 0.013756752 -0.04514664 0.013946416 0.052494124 0.078974426 -0.027994854 0.09477181
0.044391822 0.07913185 -0.04305822 0.027913233 0.01995854 0.0022965658 -0.090617836 0.016611548
-0.05864338 0.016650544 0.062173672 -0.05539787 0.061521303 -0.06331678 -0.06810502 -0.02627309
0.0006009189 -0.067214206 0.051231783 0.002943977 -0.0128506925 0.03794626 -0.002812354 0.070987955
0.010111978 0.0040239114 0.05742007 -0.071078144 -0.008109969 -0.05677019 0.05486242 0.07906169
0.0036043648 0.06796289 -0.03503917 -0.07935575 -0.02921023 -0.07260468 0.08065625 0.07969244
0.04523753 -0.07227717 -0.04236845 0.02943963 -0.019800534 -0.036878895 0.010510867 0.009618771
-0.073191196 0.07805129 -0.07592396 0.08768202 -0.08599119 0.0063565546 -0.071408644 -0.0128990635
-0.014897778 0.026842782 -0.035517894 -0.02452568 -0.021667002 0.06310181 -0.073867045 -0.058196202
0.02952487 -0.05327359 0.06315603 0.032487378 -0.019589806 -0.05609628 -0.08180979 0.03690679
0.038408082 -0.082062945 -0.010042904 -0.017635634 -0.08243389 -0.026162267 0.06526743 0.07587116
-0.017222995 0.053397633 0.039252438 0.079877816 0.009671706 -0.074097954 0.037952084 -0.02204603
0.006703849 0.03717669 0.046169054 -0.07723743 -0.009083172 -0.034046207 0.013592324 -0.071474016
0.0123059135 0.0026645118 -0.040026985 0.08611328 -0.019139681 0.03813048 0.050544966 0.06222613
0.041178964 0.07300763 0.020038094 0.013886583 0.015582328 0.01512794 -0.025315827 0.07031763
0.05703851 -0.008777454 -0.03581322 -0.033130642 0.05210996 -0.04636634 -0.02816581 0.043408412
-0.014578774 0.06900197 -0.04363563 -0.008493011 0.057730727 0.057044677 0.092175834 0.01513982
0.0005973217 -0.0003843059 0.06571856 0.038088065 -0.06681894 0.0019887441 -0.034750838 0.09932861
-0.09408384 0.018534744 -0.09489978 -0.0029295099 0.038867522 -0.00069040473 -0.07155697 0.011136124
0.014584055 0.08681252 0.032216016 -0.059673052 -0.039998177 0.038790766 -0.07352695 0.0241189
-0.017762043 -0.022369953 0.085412286 0.04489906 -0.04697969 -0.09110605 -0.035968196 0.06889126
-0.01982837 -0.074903645 -0.060473245 -0.007959667 -0.055417817 -0.01551813 0.029896762 -0.003095604
-0.041719362 -0.02255073 0.082216665 0.060760207 0.050773926 0.016404897 -0.008666717 0.043339282
0.026120083 0.057820853 0.027862592 0.030626101 0.015868451 -0.04204723 0.09559341 0.051956095
-0.09037369 0.06678775 -0.012953886 0.012556513 -0.0057237167 0.022413142 -0.0779315 0.049560223
-0.015018737 -0.021205826 0.08371695 -0.014456041 -0.039944895 0.011587969 0.03864323 0.034193717
0.037182394 0.0774234 0.016640874 0.03562558 -0.05807088 0.03782289 -0.044071805 -0.04298882
0.010944091 -0.046260804 0.010372534 -0.0006066358 -0.006798751 -0.06832716 -0.06382063 0.0711253
-0.08973415 0.06993806 -0.08052639 0.0019657619 0.065522894 -0.056017205 0.046126116 -0.06614478
-0.07229809 -0.008457409 -0.035900638 -0.03887163 -0.04397756 0.052072547 0.07798633 -0.0430503
-0.04992074 0.03145028 -0.057259925 0.015428035 -0.052758273 0.034188706 -0.07150639 0.009896863
-0.003117714 0.034389824 -0.10217559 0.05842393 0.0684452 -0.032652225 0.050476484 -0.03383643
00000000: cfac abbc 0064 613c afeb 38bd 827f 643c
00000010: 1404 573d 58bd a13d 7755 e5bc b917 c23d
00000020: 33d4 353d e10f a23d d15d 30bd 4baa e43c
00000030: 1880 a33c fb81 163b d895 b9bd f114 883c
00000040: 0a34 70bd b966 883c d2a9 7e3d e0e8 62bd
00000050: c3fd 7b3d 3aac 81bd a57a 8bbd aa3a d7bc
00000060: fc86 1d3a 9aa7 89bd 6bd8 513d bdef 403b
00000070: b68b 52bc 8a6d 1b3d 784f 38bb 2262 913d
00000080: b6ac 253c 04db 833b 4f31 6b3d 6b91 91bd
00000090: addf 04bc dc87 68bd 6bb7 603d 18eb a13d
000000a0: 3537 6c3b 2130 8b3d 3c85 0fbd 4485 a2bd
000000b0: 4b4a efbc c3b1 94bd 1b2f a53d ca35 a33d
000000c0: fd4a 393d 0e06 94bd 8a8a 2dbd 612b f13c
000000d0: bb34 a2bc 530e 17bd c635 2c3c 0d98 1d3c
000000e0: 44e5 95bd 5bd9 9f3d 057e 9bbd a292 b33d
000000f0: 261c b0bd a54a d03b b23e 92bd 9856 53bc
00000100: cf15 74bc 65e5 db3c 367b 11bd 14ea c8bc
00000110: ff7e b1bc 863b 813d 9b47 97bd 245f 6ebd
00000120: 24de f13c 6835 5abd f357 813d 7c11 053d
00000130: cd7a a0bc 37c5 65bd e48b a7bd 932b 173d
00000140: cb51 1d3d 9e10 a8bd fe8a 24bc 9b78 90bc
00000150: 19d3 a8bd 4052 d6bc eeaa 853d 5762 9b3d
00000160: 3d17 8dbc 7ab7 5a3d 2ac7 203d fb96 a33d
00000170: 1376 1e3c abc0 97bd a573 1b3d e099 b4bc
00000180: f6ab db3b 9646 183d c31b 3d3d a82e 9ebd
00000190: 96d1 14bc 0974 0bbd 57b2 5e3c f860 92bd
000001a0: be9e 493c 179f 2e3b 56f3 23bd 295c b03d
000001b0: d2ca 9cbc b52e 1c3d 3d08 4f3d d4e0 7e3d
000001c0: 46ab 283d 0685 953d ee26 a43c 8d84 633c
000001d0: 054d 7f3c 2edb 773c 2363 cfbc b102 903d
000001e0: 36a1 693d 4fcf 0fbc e2b0 12bd ffb3 07bd
000001f0: 4171 553d a2ea 3dbd fcbb e6bc 05cd 313d
00000200: cfdb 6ebc e850 8d3d 46bb 32bd 4526 0bbc
00000210: 0e77 6c3d aea7 693d afc6 bc3d 020d 783c
00000220: 9595 1c3a aa7c c9b9 7497 863d 3b02 1c3d
00000230: 5ed8 88bd 9755 023b e556 0ebd cc6c cb3d
00000240: 07af c0bd 2dd6 973c d15a c2bd 05fd 3fbb
00000250: 8d33 1f3d 47fc 34ba 768c 92bd 4a74 363c
00000260: f6f1 6e3c c3ca b13d f1f4 033d bb6b 74bd
00000270: 21d5 23bd 11e3 1e3d 4c95 96bd 0095 c53c
00000280: b481 91bc 3141 b7bc a3ec ae3d 14e8 373d
00000290: c76d 40bd cf95 babd 6353 13bd dc16 8d3d
000002a0: 1b6f a2bc 1567 99bd cbb2 77bd 4369 02bc
000002b0: cbfd 62bd c13f 7ebc 0eea f43c 9edf 4abb
000002c0: ece1 2abd 4fbc b8bc 3661 a83d b2df 783d
000002d0: 52f8 4f3d 9063 863c d9fe 0dbc 8884 313d
000002e0: c9f9 d53c 8fd5 6c3d 1740 e43c 97e3 fa3c
000002f0: 8efe 813c b739 2cbd 7ac6 c33d eacf 543d
00000300: d715 b9bd 04c8 883d 893c 54bc d5b9 4d3c
00000310: 048e bbbb c49b b73c 8d9a 9fbd a9ff 4a3d
00000320: 2611 76bc d7b7 adbc cb73 ab3d 08d9 6cbc
00000330: 429d 23bd 77db 3d3c 5d48 1e3d b60e 0c3d
00000340: 914c 183d 2990 9e3d 7152 883c 21ec 113d
00000350: bbdb 6dbd 2dec 1a3d a384 34bd 0b15 30bd
00000360: d84e 333c f87b 3dbd 90f1 293c a406 1fba
00000370: 0fc8 debb 1cef 8bbd 64b4 82bd 24aa 913d
00000380: 8ac6 b7bd b03b 8f3d 05eb a4bd 03d4 003b
00000390: de30 863d 4c72 65bd bdee 3c3d ea76 87bd
000003a0: 0511 94bd f290 0abc 8c0c 13bd dc37 1fbd
000003b0: d021 34bd 064a 553d 4cb7 9f3d 8355 30bd
000003c0: b179 4cbd 02d2 003d 6289 6abd dec5 7c3c
000003d0: 0f19 58bd 7509 0c3d f171 92bd 7426 223c
000003e0: 9052 4cbb 58dc 0c3d 7041 d1bd ee4d 6f3d
000003f0: ff2c 8c3d 57be 05bd 6ec0 4e3d 1298 0abd

lstm.weight_hh_l1 f4 [512, 128]
0.0022219697 0.01996315 0.02876294 -0.007605123 -0.045293197 -0.046849273 -0.027367083 -0.029417977
-0.040852085 0.04625044 0.04179039 -0.052741285 0.03436382 -0.094019994 -0.0329084 0.024293823
0.059453294 0.03435703 -0.015041899 0.032749906 -0.06875793 0.0268219 -0.080750994 0.04514169
0.05068196 0.020947447 0.08201669 0.06204734 -0.0077951658 -0.071104065 -0.047495853 0.043913122
-0.011059162 0.063105784 -0.020656914 -0.014774326 -0.08565894 -0.09276306 -0.06542684 0.013193197
-0.078244925 -0.012479982 0.0090584075 -0.04453315 0.077825464 0.0033370317 -0.087498635 0.037856188
-0.022247741 0.079669975 -0.021165116 0.009228978 0.06578358 0.06554585 -0.081248485 -0.006821037
0.014345374 0.09269614 -0.023191374 0.007860415 0.072051235 0.018395072 0.016395116 0.019902267
-0.09234208 0.007676465 0.071869954 -0.027788859 -0.07291584 -0.075241245 0.02933117 -0.013403144
-0.040518213 0.035718843 0.028434683 0.0046080546 -0.003506963 0.023689736 -0.031136142 -0.015246695
0.0029632996 0.019419111 -0.025843577 0.057598066 0.007421999 0.053467825 0.007563331 0.004039329
-0.020279994 -0.040356778 -0.017786145 0.025999578 -0.0022003944 -0.06966456 0.037779856 -0.011466191
-0.03326703 0.07378581 -0.09017675 -0.04579859 0.05262965 0.05436066 0.0007787362 0.07472344
0.032948915 0.040504802 0.06791606 0.009351363 0.03590133 -0.036584135 -0.06422214 0.07916352
-0.054394063 0.03400471 0.08202453 -0.031158341 -0.039884124 -0.058473457 0.04826284 0.06034394
0.046960697 -0.043542165 0.09400918 -0.021207673 -0.028181342 -0.060830154 -0.031331383 0.025507636
-0.06046536 0.04053083 0.0354334 0.0680438 0.07712617 -0.08314649 0.035872716 -0.060835924
0.046282094 -0.05145008 -0.07380075 -0.06487361 -0.010880624 -0.028068436 0.064630695 0.008771923
0.044778872 0.091816545 0.043688413 0.015803339 -0.02882735 0.0443319 -0.08742303 0.024941817
-0.044406984 -0.046405748 0.03308151 0.053974453 0.052411515 -0.08527417 -0.036461122 -0.0920798
-0.0003307338 0.030867955 0.00979027 -0.055060253 -0.034437243 0.0022277932 -0.06304998 0.03900303
0.04893299 0.0023804945 -0.036961384 0.08339703 0.043545157 0.026213637 0.092772946 0.03983245
-0.054132238 -0.097396955 0.06492634 0.018417701 0.061738815 0.042919956 0.056310907 0.041236173
-0.0069303755 -0.056856226 -0.053099066 -0.038230535 0.08050024 -0.07343763 0.08247148 -0.029139955
-0.0062710866 -0.021172479 -0.048428968 0.047481924 0.021317424 0.038849674 0.041352678 0.037357785
0.019165073 0.020183656 0.007585512 -0.036976658 0.07413602 0.07160204 -0.08058734 -0.013320246
0.039704237 0.061560288 0.06983388 0.01410315 -0.079011835 -0.06615433 -0.0116306245 0.0722813
-0.04660179 0.05581692 -0.06743341 -0.06813321 0.017441934 0.016585603 0.077829085 -0.058222085
-0.006636788 -0.024636926 -0.06651612 -0.007156086 0.023759896 0.07476531 -0.00936366 0.088734426
0.084618956 0.07535478 0.056265093 0.07265224 0.08829049 -0.08851132 -0.022377113 0.0084044505
-0.026382044 0.04253299 0.08741924 0.05301514 0.089392245 0.022692498 0.023236154 -0.0119066965
0.07971207 0.03842114 -0.0057538575 0.0625582 0.079262845 -0.018391784 0.044114772 -0.052260272
00000000: 779e 113b c389 a33c 42a0 eb3c 6534 f9bb
00000010: 5c85 39bd 06e5 3fbd ef30 e0bc f8fd f0bc
00000020: 8454 27bd 1a71 3d3d 662c 2b3d 3f07 58bd
00000030: 14c1 0c3d 8e8d c0bd f5ca 06bd d703 c73c
00000040: 4c85 733d f5b9 0c3d 4c72 76bc c424 063d
00000050: f5d0 8cbd 9ab9 db3c c760 a5bd 7ee6 383d
00000060: e397 4f3d fb99 ab3c 5ef8 a73d 5a25 7e3d
00000070: 976e ffbb 029f 91bd 038b 42bd 3fde 333d
00000080: 7d31 35bc 9b3d 813d b038 a9bc 0410 72bc
00000090: f46d afbd 8ffa bdbd 82fe 85bd 4728 583c
000000a0: e03e a0bd d778 4cbc b769 143c 6468 36bd
000000b0: f562 9f3d 1ab2 5a3b 7c32 b3bd 170f 1b3d
000000c0: e540 b6bc 032a a33d 7762 adbc 2435 173c
000000d0: 8bb9 863d e73c 863d 9b65 a6bd 0183 dfbb
000000e0: dc08 6b3c 79d7 bd3d d6fb bdbc f8c8 003c
000000f0: 998f 933d 43b1 963c 0d4f 863c 140a a33c
00000100: d81d bdbd db8a fb3b 8e30 933d 76a5 e3bc
00000110: e654 95bd 1518 9abd ec47 f03c dc98 5bbc
00000120: 6df6 25bd ec4d 123d daef e83c 2aff 963b
00000130: 13d5 65bb fa10 c23c 3911 ffbc 46cd 79bc
00000140: eb33 423b d414 9f3c e9b5 d3bc f3eb 6b3d
00000150: 3d34 f33b 1401 5b3d d2d5 f73b 595c 843b
00000160: 3b22 a6bc 264d 25bd 40b4 91bc 11fd d43c
00000170: 7e34 10bb 4bac 8ebd 0dbf 1a3d b1dc 3bbc
00000180: 0243 08bd 041d 973d 97ae b8bd 4d97 3bbd
00000190: 3092 573d 49a9 5e3d 1a24 4c3a 9a08 993d
000001a0: 71f5 063d 5de8 253d 9317 8b3d 7636 193c
000001b0: 460d 133d 3fd9 15bd e686 83bd 7c20 a23d
000001c0: 4fcc 5ebd 8648 0b3d 7afc a73d c73f ffbc
000001d0: 895d 23bd dd81 6fbd 41af 453d 352b 773d
000001e0: dc59 403d 4559 32bd e387 c03d b7bb adbc
000001f0: 8fdc e6bc 0a29 79bd 5655 00bd 64f5 d03c
00000200: 86aa 77bd a803 263d 9d22 113d 8c5a 8b3d
00000210: 53f4 9d3d b548 aabd 45ef 123d 172f 79bd
00000220: 4b92 3d3d 52bd 52bd d924 97bd 75dc 84bd
00000230: a544 32bc c7ef e5bc 195d 843d 1db8 0f3c
00000240: 0d6a 373d 500a bc3d 9ff2 323d 0176 813c
00000250: 5627 ecbc 5e95 353d d80a b3bd c852 cc3c
00000260: 19e4 35bd f413 3ebd 7a80 073d 5114 5d3d
00000270: 75ad 563d 39a4 aebd 4258 15bd 5694 bcbd
00000280: 5766 adb9 cbde fc3c 5e67 203c dc86 61bd
00000290: 110e 0dbd 2b00 123b 5920 81bd a4c1 1f3d
000002a0: f56d 483d 1202 1c3b d264 17bd 10cc aa3d
000002b0: 685c 323d fbbd d63c beff bd3d 5a27 233d
000002c0: c4b9 5dbd 0e78 c7bd 1af8 843d b8e0 963c
000002d0: d7e1 7c3d d6cc 2f3d 44a6 663d 43e7 283d
000002e0: 3418 e3bb 13e2 68bd 687e 59bd 9f97 1cbd
000002f0: 4fdd a43d 7866 96bd cfe6 a83d eab6 eebc
00000300: b07d cdbb e871 adbc 745d 46bd 687c 423d
00000310: e1a1 ae3c d620 1f3d 6d61 293d 7a04 193d
00000320: 1200 9d3c 3258 a53c e38f f83b d674 17bd
00000330: a0d4 973d 17a4 923d fa0a a5bd 293d 5abc
00000340: e9a0 223d a426 7c3d 1105 8f3d e610 673c
00000350: f5d0 a1bd ec7b 87bd 608e 3ebc 3808 943d
00000360: 85e1 3ebd 48a0 643d 871a 8abd 6d89 8bbd
00000370: 63e2 8e3c 88de 873c db64 9f3d 487a 6ebd
00000380: 6a79 d9bb 61d3 c9bc 9b39 88bd 9a7d eabb
00000390: 1da4 c23c 8e1e 993d 096a 19bc 65ba b53d
000003a0: b44c ad3d 9b53 9a3d 3a76 663d b3ca 943d
000003b0: a5d1 b43d 6c45 b5bd 3550 b7bc d2b2 093c
000003c0: 281f d8bc 1337 2e3d dc08 b33d 6726 593d
000003d0: 4813 b73d 9ee5 b93c bf59 be3c 4e14 43bc
000003e0: 1540 a33d 7c5f 1d3d db8a bcbb 831e 803d
000003f0: 8f54 a23d 5eaa 96bc b1b1 343d de0e 56bd

lstm.bias_ih_l1 f4 [512]
-0.05512641 0.040925715 -0.0697934 0.070746675 0.0763027 -0.0017053881 0.026545538 -0.010158067
0.07405828 -0.008980213 -0.04204539 0.08445277 -0.048770744 -0.022722382 -0.044817407 0.0043341527
-0.07837238 -0.034127854 -0.069805466 -0.0019394469 -0.037345905 0.084350035 0.012351121 0.039462958
-0.053560253 0.004115989 -0.005887844 0.042917106 -0.031928066 -0.08070023 -0.034310892 -0.07280525
-0.05650741 0.038421538 -0.017314458 -0.07576094 0.009132058 -0.0074112406 -0.05703868 -0.0140880225
-0.028321901 -0.032659575 -0.04726336 0.0918134 -0.026733266 -0.051241897 0.032489385 -0.04747439
0.013221599 -0.08744041 -0.0501036 -0.052590158 0.029828807 0.058176883 0.006913603 -0.031205807
-0.07123865 0.04027711 0.03984768 0.04138481 -0.057426725 -0.00452921 -0.102280244 0.027214283
-0.09853514 0.052797567 0.06821706 0.0356214 0.04669477 -0.0799197 0.027791621 0.022471141
-0.0029256733 -0.02100938 -0.06287317 0.03277075 -0.087238476 -0.042163868 0.07877493 0.053314343
-0.06694353 0.037959803 -0.07024898 0.0006473439 -0.05718997 -0.022268606 -0.035572734 0.012892441
0.014601809 0.08188552 -0.046120122 0.0102239465 0.0547902 -0.072749496 -0.096230574 -0.009304097
-0.022584477 0.031859554 -0.06290402 -0.0075478824 -0.045329954 0.057001084 0.031154182 0.026618417
-0.023481585 0.0076139704 -0.086309105 0.019565841 -0.030080792 0.037203472 0.021309223 -0.076158874
-0.058174036 -0.06433293 0.016515568 0.07099589 0.03928903 0.006912158 0.022255145 0.064917706
-0.005324606 -0.030550594 0.044595826 -0.08680655 -0.060842942 -0.009733265 -0.047690433 -0.049898695
-0.030754084 0.036766592 0.035511933 -0.05431402 0.050751504 -0.0033854335 0.08235959 -0.06029155
-0.09083124 -0.07821694 -0.02569627 0.033352304 0.081089064 0.012684372 0.018245341 -0.03036613
-0.067094885 0.05388861 0.041366674 0.06158376 -0.054356176 -0.051964995 -0.010014998 -0.07863599
0.08514295 -0.057836425 -0.08440775 0.06508506 -0.015323466 -0.046433948 0.056386292 -0.025526132
-0.03575151 0.042980984 -0.05550509 -0.026440797 0.07182274 -0.04853141 -0.08052404 -0.02902616
0.012134749 0.00574393 -0.057839002 0.033529915 0.0004066701 -0.04706651 -0.062879816 -0.040052958
0.042320244 -0.06394339 -0.09803737 -0.0073218667 0.05389156 -0.048052873 0.061153974 -0.026548909
-0.05813557 0.05895859 0.07965803 -0.03413264 0.05186849 -0.030403003 -0.023577755 -0.018664183
0.0006726167 -0.065133125 -0.0148175545 0.026914591 0.03686958 0.038645726 -0.025016773 -0.013100426
-0.056461006 -0.07291319 -0.038670126 -0.0061257314 -0.036235187 0.038007636 -0.08916984 0.031903636
0.060775414 -0.036389902 0.089437075 0.01784206 0.029870931 -0.023614919 -0.068336956 -0.035124265
-0.0511546 0.043786224 -0.054808706 0.097145036 -0.011709968 0.0162212 0.014992747 -0.06440373
-0.00063459366 0.0072293906 0.0899887 -0.044391524 -0.017758371 0.009797788 -0.032860532 -0.0038644967
0.032406256 0.013745107 -0.02196707 -0.056265667 0.030444454 -0.03510343 -0.04863058 0.004739894
-0.04986927 -0.081882104 0.004496859 0.06647448 -0.025071017 -0.04427758 0.0552133 -0.011594328
-0.026847519 -0.028318517 -0.09285555 0.05516581 -0.02651516 0.0049747205 -0.048383635 0.025764788
00000000: 3bcc 61bd b9a1 273d d8ef 8ebd a2e3 903d
00000010: 9744 9c3d 5487 dfba 0776 d93c 056e 26bc
00000020: deab 973d be21 13bc c937 2cbd 93f5 ac3d
00000030: d5c3 47bd 4a24 babc 7592 37bd 8205 8e3b
00000040: b381 a0bd a6c9 0bbd 2bf6 8ebd 0a35 feba
00000050: 05f8 18bd b6bf ac3d 5b5c 4a3c e9a3 213d
00000060: ff61 5bbd 6bdf 863b d1ee c0bb d9c9 2f3d
00000070: 01c7 02bd 2a46 a5bd 9489 0cbd eb1a 95bd
00000080: 5074 67bd e75f 1d3d 0dd7 8dbc 8d28 9bbd
00000090: a19e 153c fed9 f2bb 64a1 69bd 73d1 66bc
000000a0: 5503 e8bc 0cc6 05bd 3a97 41bd aa08 bc3d
000000b0: b9ff dabc 06e3 51bd 9713 053d 8274 42bd
000000c0: 689f 583c f513 b3bd 6f39 4dbd c768 57bd
000000d0: 8b5b f43c e24a 6e3d 818b e23b 52a3 ffbc
000000e0: 92e5 91bd 9cf9 243d 5237 233d 1e83 293d
000000f0: 4938 6bbd c469 94bb 4e78 d1bd 7df0 de3c
00000100: cbcc c9bd 4342 583d 63b5 8b3d bfe7 113d
00000110: 0443 3f3d f1ac a3bd 41ab e33c 6615 b83c
00000120: a7bc 3fbb dd1b acbc a6c3 80bd 9f3a 063d
00000130: 16aa b2bd 05b4 2cbd c054 a13d 2460 5a3d
00000140: b119 89bd bd7b 1b3d b2de 8fbd 84b2 293a
00000150: 0840 6abd a76c b6bc b7b4 11bd d13a 533c
00000160: 6d3c 6f3c 98b3 a73d 74e8 3cbd 5782 273c
00000170: b06b 603d b0fd 94bd 8914 c5bd 3670 18bc
00000180: 1503 b9bc 2a7f 023d d3d3 80bd 3a54 f7bb
00000190: e7ab 39bd f879 693d 0e37 ff3c de0e da3c
000001a0: 745c c0bc 9d7e f93b d4c2 b0bd 8b48 a03c
000001b0: fe6b f6bc ab62 183d ae90 ae3c 2ff9 9bbd
000001c0: e647 6ebd fcc0 83bd a84b 873c 4b66 913d
000001d0: 89ed 203d 627f e23b 6c50 b63c 93f3 843d
000001e0: 087a aebb 3d45 fabc 1daa 363d a2c7 b1bd
000001f0: 7336 79bd 4678 1fbc 0b57 43bd 9362 4cbd
00000200: fdef fbbc 9198 163d f674 113d 6178 5ebd
00000210: cfe0 4f3d 26de 5dbb 25ac a83d 46f4 76bd
00000220: bb05 babd 3430 a0bd fc80 d2bc 6d9c 083d
00000230: 0612 a63d 1dd2 4f3c 4177 953c 64c2 f8bc
00000240: 0b69 89bd 4eba 5c3d 1a70 293d 413f 7c3d
00000250: 95a4 5ebd 3fd9 54bd f215 24bc e80b a1bd
00000260: 6d5f ae3d e3e5 6cbd f8dd acbd 514b 853d
00000270: 460f 7bbc 8631 3ebd 50f5 663d 2e1c d1bc
00000280: 2d70 12bd d40c 303d 4e59 63bd 5f9a d8bc
00000290: cd17 933d dfc8 46bd cae9 a4bd 45c8 edbc
000002a0: d4d0 463c 9437 bc3b 97e8 6cbd aa56 093d
000002b0: 5636 d539 d0c8 40bd 22c7 80bd 920e 24bd
000002c0: fe57 2d3d c1f4 82bd d1c7 c8bd 45ec efbb
000002d0: 65bd 5c3d 17d3 44bd 977c 7a3d 197d d9bc
000002e0: 901f 6ebd 907e 713d c023 a33d abce 0bbd
000002f0: 0e74 543d b80f f9bc 2326 c1bc a1e5 98bc
00000300: 8b52 303a 8464 85bd 54c5 72bc fd7b dc3c
00000310: 8f04 173d fb4a 1e3d faef ccbc 2ba3 56bc
00000320: a843 67bd 8353 95bd 9164 1ebd 5cba c8bb
00000330: 596b 14bd e5ad 1b3d ad9e b6bd 63ad 023d
00000340: a4ef 783d 940d 15bd c92a b73d 8329 923c
00000350: e2b3 f43c 1374 c1bc 3ff4 8bbd 76de 0fbd
00000360: 7c87 51bd 2f59 333d 187f 60bd faf3 c63d
00000370: 2adb 3fbc 52e2 843c 24a4 753c 1ae6 83bd
00000380: dc5a 26ba 86e4 ec3b ff4b b83d e3d3 35bd
00000390: 017a 91bc e786 203c c498 06bd 7f43 7dbb
000003a0: 6cbc 043d 2833 613c 49f4 b3bc d476 66bd
000003b0: a666 f93c 9dc8 0fbd dc30 47bd 1d51 9b3b
000003c0: b843 4cbd ceb1 a7bd 635a 933b c623 883d
000003d0: bc61 cdbc 685c 35bd 5727 623d 23f6 3dbc
000003e0: 54ef dbbc 3cfc e7bc 0d2b bebd 8bf5 613d
000003f0: 5236 d9bc fb02 a33b eb2d 46bd ad10 d33c
